1st_model/combineCLH.pt (torch_old, 531289 bytes, 4 tensors)

linear1.weight f4 [256, 512]
00000000: e839 843b 9bcb e73c 88f4 08bc 38aa d63c
00000010: 7caf bdbd dc87 1d3d 666f 1fbb c608 02be
00000020: 1eaa 87bd 8f86 48bd e152 8fbd a325 c2bb
00000030: 1a98 02bc 9faa 423d 7ccd 383c d91c 6b3d
00000040: 2365 013d 9f70 153c 1d39 1ebd 6b62 b13d
00000050: 5be5 25bd c0d0 16bc 80fd adbc dd6a 84bd
00000060: 1bd4 0c3e a68a 3c3d 7526 c83c 25f9 a0bb
00000070: 60b9 3cbd 2c63 6ebd 473d dcbc 7c67 413c
00000080: 0018 e4bd bd45 38bd 2552 e7bc 0b3b 0dbc
00000090: d986 0f3e 1c56 5f3d 65b0 9bbd 08bc 5fbd
000000a0: f349 043d ab78 8dbb 7d40 02bd c080 4bbd
000000b0: 07cc 043d c07f 98bd 9573 fbbc 2549 81bb
000000c0: 46e8 4f3d 9b70 94bc 1ac3 cdbd 92d5 86bd
000000d0: a870 4b3d 7ec3 1a3d e33b 38bd 9e68 083c
000000e0: 364f ecbc f0b3 143d 5fee 303b c654 333d
000000f0: 252a 343d 4170 fe3b aa3e c5bd 9900 dfbd
00000100: 3389 adbd f69a fbbc ebce 6ebd d2d9 bc3c
00000110: 4815 143e 5256 ea3d 92bb 2cbd bbd2 1c3b
00000120: 14e7 62bc b03f da3d ae3b 55bb 76a6 983d
00000130: 281b 9f3d faf6 b43d 5e65 423d 1970 073d
00000140: 83bb 39bd 75a5 383d 9027 a23d 61b7 283d
00000150: a1f1 973c 2e54 803d e547 ccbd 3054 b13c
00000160: d506 9abd 0c02 76bd 7f77 ec3c ea91 26bd
00000170: be71 e53d 0c6c bd3c bdba 133d eb52 d13d
00000180: 93e6 80bd 7f0b 83bd 07ac 0b3d 1e6e e7bd
00000190: eaf2 05be 4a71 3bbd ff1f a23d b57a 7dbd
000001a0: 16c7 1d3e 645a 72bd 1c67 edbc ad95 4fbd
000001b0: 0553 483d 90a8 42bd 09c4 6c3b cc21 633c
000001c0: 18ca 623d 8eb5 6d3d 7b68 7ebd 384f a3bb
000001d0: fd8a 803d 11d7 2b3c 4ad2 923d c5d5 f73c
000001e0: da72 24b9 c8f5 08bd 9405 8b3c 4dbf 1fbd
000001f0: 5a49 403d 690d 443d df39 543d ca37 8f3d
00000200: 2502 17bd 9da3 71bd 4f18 c0bc 50ca 423b
00000210: 45b4 ee3a 1681 f0bc cbe8 e9bd 4c72 da3a
00000220: acd6 8f3d 4cff 34bb 0552 dc3c 40cc b73b
00000230: 8b1c 9b3d 5675 48bd ead4 ac3c 2fed 27bd
00000240: ab07 f83c 7dfb 3dbd f6ef e93c 02c3 803d
00000250: 26dc c13b da42 58bd 999d 103d bfa0 1bbd
00000260: 45c9 06bc f685 87bd 9795 4f3b 70ad fabd
00000270: 77b0 e33d 0db5 b7bc f888 a03d 2e01 2e3c
00000280: 94ec 45bd 2072 54bc 771c 63bd f8e5 49bd
00000290: 0756 94bd 5125 333d 5713 2fbc 576e d8bd
000002a0: d10f bb3c 3937 66bd 3885 0cbd 6741 9abc
000002b0: afb8 a4bc ce8d 113c 7298 09be ff77 aebd
000002c0: 18ce 2f3d 9cf9 bcbc 9dc9 4c3d 692c 01be
000002d0: 9822 823d b063 213a 7fe5 51bd ef1c 30bd
000002e0: 2b4a 42bd 8433 07bd fee4 03bd a59c 00bd
000002f0: 86f6 a93d 2f5e 10bc 9579 00bc b2aa f63c
00000300: d8ce 273d 3842 3c3b dd0b 85ba d36b aebd
00000310: bf35 e1bc e68d 9c3d c35d 89bc de9d 983d
00000320: 85c8 6bbc 60dc d73c af7c d73c 7a71 70bd
00000330: 30dd b0bd fa76 ea3c 244b bebd 56a5 c7bd
00000340: 378f a73c ab12 003d eafd 65bc 9dd0 663d
00000350: de62 483d 170a b13c cdf7 d7bc e3d1 87bc
00000360: 3afa 06be 43be 67bd 0bb1 29bd 1722 35bb
00000370: f9d2 93bd 1c31 43bd ed83 223c 0eef 813d
00000380: efb4 6b3d ac3e 5dbd 1dff d93d 2e11 2fbd
00000390: 9861 a93c d118 e8ba 1031 56bd 718e d03d
000003a0: 0035 0cbd 9e92 743c fd5c 8cbc be64 d2bd
000003b0: 8651 0ebc 7b17 4a3d ab1b a33d f049 313d
000003c0: 6e9d feba 1678 67bd 0b53 e93c d3b4 043d
000003d0: 1b5d c0bd 7ed4 14be 7695 76bc 74bf b0bd
000003e0: 2859 823c ea42 833c d75d 34bd 8829 99bd
000003f0: 6650 23bb 91d4 acbb 4e06 2abc 1a51 8a3d
0.0040352233 0.028295329 -0.008359082 0.026204214 -0.092619866 0.038459644 -0.0024327873 -0.1269866
-0.06624244 -0.04895645 -0.0699823 -0.005924897 -0.007970834 0.047526 0.01127946 0.05740056
0.031590592 0.009121089 -0.038628686 0.0866135 -0.040501934 -0.009205043 -0.021239042 -0.06465695
0.13752787 0.046030663 0.0244324 -0.004912513 -0.046075225 -0.058200046 -0.026884688 0.011804458
-0.1113739 -0.044988383 -0.028237412 -0.008620034 0.14016284 0.05452548 -0.07602004 -0.05462268
0.032297086 -0.0043173633 -0.031799782 -0.049683332 0.03242114 -0.074462414 -0.030694762 -0.003945487
0.050758623 -0.0181201 -0.10046978 -0.06583704 0.049667984 0.037784092 -0.044978987 0.008325724
-0.028846364 0.036304414 0.002699755 0.043782018 0.043985505 0.0077648466 -0.09631093 -0.10888786
-0.08473434 -0.03071354 -0.0583028 0.023053084 0.14461243 0.114422455 -0.04217107 0.0023929316
-0.013849039 0.10656679 -0.0032536793 0.07453625 0.077688515 0.088361695 0.047459953 0.03306589
-0.04534484 0.045079667 0.07917702 0.04119051 0.018547835 0.06266056 -0.0997465 0.021646589
-0.07520834 -0.060060546 0.028865574 -0.0406665 0.11203335 0.02312281 0.03606676 0.102208935
-0.062939785 -0.06398677 0.034099605 -0.113003 -0.13080946 -0.045762338 0.07916259 -0.0618846
0.15407977 -0.059168234 -0.02897983 -0.05067985 0.0489073 -0.047524035 0.0036127588 0.013863038
0.055368513 0.058034472 -0.06211136 -0.004983809 0.0627651 0.010488288 0.07169016 0.0302533
-0.00015683044 -0.03343752 0.016970433 -0.039000798 0.046944954 0.04786435 0.051813003 0.06993063
-0.03686728 -0.058993924 -0.023449091 0.0029722638 0.0018211683 -0.029358428 -0.11421355 0.0016666143
0.07023367 -0.002761799 0.026894579 0.0056090653 0.075738035 -0.048940025 0.02109762 -0.04099768
0.030277094 -0.046382416 0.028556805 0.06287195 0.0059161363 -0.05279813 0.035306547 -0.037995096
-0.008226697 -0.06617348 0.0031674856 -0.12240112 0.111176424 -0.022425199 0.07838625 0.010620398
-0.04832132 -0.012966663 -0.055447068 -0.04929158 -0.07242971 0.04373676 -0.010685763 -0.10567921
0.02283469 -0.05620501 -0.034306735 -0.018830014 -0.020107595 0.0088839065 -0.1343706 -0.08518981
0.042921156 -0.023068242 0.04999696 -0.12614597 0.063542545 0.0006156517 -0.051244255 -0.042996343
-0.047434013 -0.033008114 -0.032200806 -0.031399388 0.08298974 -0.008811518 -0.007841487 0.03011069
0.040968746 0.0028725993 -0.001015063 -0.085166596 -0.027491448 0.076442525 -0.016768342 0.07451986
-0.014391069 0.0263502 0.026304571 -0.05870197 -0.08635938 0.028621186 -0.09291676 -0.09748332
0.020454032 0.031267803 -0.014037589 0.056351293 0.048922412 0.021611257 -0.026363278 -0.016579574
-0.13181391 -0.056577932 -0.041428607 -0.0027638727 -0.07217974 -0.047654256 0.009919149 0.06344424
0.0575456 -0.054014847 0.10644362 -0.042740993 0.02067642 -0.0017707591 -0.052292883 0.101834185
-0.034230232 0.014927534 -0.017134184 -0.10273121 -0.008686429 0.0493388 0.079642616 0.043283403
-0.001942558 -0.056511007 0.02848198 0.03239901 -0.093927585 -0.14534184 -0.015050283 -0.08630267
0.015911654 0.016023118 -0.044034805 -0.074786246 -0.0024919747 -0.0052743633 -0.01037748 0.0675375

linear1.bias f4 [256]
00000000: 9f34 26bd 4826 62bf 9c56 6f3d 4f76 153f
00000010: 9866 46c0 6497 4fbd 0f57 31bf bd9f c8bd
00000020: 22f1 5e3f 5857 343e 8313 5bbf 3e64 803f
00000030: 2b18 dabc 4661 2a3e e422 be3f 93f8 5fbe
00000040: 3341 01c0 0963 24be 8e75 163d 8a0b 36bf
00000050: d4e9 0f3f e6f9 8ebe 0eee 85bf 6a05 2f3e
00000060: 9977 42bf ee1e a8be abb0 9a3f ee5e fb3b
00000070: b5fa d0be 0994 edbe e511 d2bd 1cdb 943e
00000080: c5de 363b ae41 a63e 55ee 883e d27a 723f
00000090: 3555 eb3f 86b6 ed3e f951 a33f b335 94be
000000a0: 2782 893f 2f58 17bf eb46 de3e c910 45c0
000000b0: a002 6bbe 19ae 0740 2fdf 503d c1ce e4bf
000000c0: 4391 083f ab2b 5e3e 8559 463f 3745 86bf
000000d0: 8f44 5ebf 0df9 55bf 9878 0e3f 8ca1 563f
000000e0: ecc2 2fbf 0ff2 f33e 4dad ebbe dcdf 95be
000000f0: bc23 6fbe 7824 12be 9779 373e 6f28 7dbf
00000100: b06e bc3e 9634 fbbd 5a43 363f f4d3 cebe
00000110: e09c 453f 63b1 af3e 3157 233e 9e6d 2abf
00000120: a068 93be 7397 a7be 87da 223f 88f3 abbf
00000130: ac3f 1a3f 29b5 04bf 08ff e13d 8f93 39be
00000140: 9417 273e 3e19 213f 1df0 21bd 339d 8a3f
00000150: 65cc dbbe 769c 413f 2b9a 613f a92f dbbe
00000160: aed5 0b40 667c f3bd c0e9 013e 70f4 4abf
00000170: 1bb3 6a3f d0d9 0ec0 fa16 14bf 0efe 01c0
00000180: 7ccd 343f 500b 7f3e 1c14 0b3f eb47 a5be
00000190: b28a 8ebe 6f4a 803e 3ff1 18be 7109 48bf
000001a0: 9cbe 79bf 68e8 32bf 2380 773f 5906 803f
000001b0: f3f4 54bf 3eb7 96be e05a 6dbf 499f 1c3e
000001c0: 839e 0740 0bb2 153f 01cf 18bf 572d 453e
000001d0: c8dc ff3e 1c6a aabe b766 ae3d 673f bfbe
000001e0: 066d 37bf 2977 38bb 591a 713f 7f45 c73e
000001f0: b2a7 acbd 91d2 85be 4db1 e43e 846e da3e
00000200: 5d32 c6bf a439 97bd 13ee debf 114d 4fbd
00000210: 7348 aebd 885a ec3e 69cc d2bd 592b 1fbf
00000220: 46d7 e5bd a076 04be 2b48 4a3e fe04 4fbf
00000230: 4474 c83e d2a8 c83e 06a6 1bbe e5cc eebc
00000240: c731 5a3f 58cf e73e c7b6 933e b57e 3bbf
00000250: 762f 1bbf 4eb1 113f 302f 1b3f 1d72 f63f
00000260: cbae 02bf c8ee a3be 2271 553f d16f 0d3e
00000270: 6d01 a2be 7b14 06c0 3f72 8abe 7daa b0be
00000280: 693d d1be 8972 1ac0 f16f f13e a31e 7bbf
00000290: ba3b 87be d7ad d03e 5047 f53f c34e 5ebf
000002a0: 1952 5bbc d2dd 843f d2a7 0a3c 53db 993f
000002b0: a050 4a3e b1e8 dcbe 0e35 10bf 2db0 14bf
000002c0: 640c 313e 9574 75bf 078c c2bd 721f 373e
000002d0: 9d1f ae3e 3b3b 9fbe 9072 883e b1fc 17bf
000002e0: 325a c6be f6a2 303f 0f46 f0be f9dc 8c3e
000002f0: b829 b13f b8c6 62be 3d54 3dc0 67cd dc3f
00000300: 5769 4abd 405f 1ebf 81b0 1ebf b3cf 6e3f
00000310: 220e 82be 4e4b 65c0 1f82 be3d bc70 0b3f
00000320: f756 52bf 93cb 433e 8d82 553f 9f54 973e
00000330: 0e24 13bf 7291 1e3f d8d2 cd3f 3337 9ebe
00000340: 89d2 8b3e 37ad 043d c5d0 bebe fbed 3bbf
00000350: 7405 273d c943 153f 3167 073f 5ca8 893f
00000360: a63b e0be 756d 243e 4d17 24bc 8abb 99bf
00000370: a2ff 413f b7e8 ea3d c44d 8d3e fb8c 883f
00000380: a4b2 8cbe 38c1 6b3f bcaf 6e3e 7d50 92bc
00000390: 6382 99bd fd7d a7be 1e53 19bf b67f 6ebf
000003a0: b862 8cbf 6f44 533f 8971 053e 4b57 2e3d
000003b0: 1702 063d 8b22 963f a47b 6f3f dfbf 133f
000003c0: bfea 973f 1006 893f 7733 aabe ec7d 563e
000003d0: b100 05bd a4d5 453e 7964 9ebf 5833 20bf
000003e0: 7c1b 9dbe bc24 073d aaf2 bdbd 4e83 58be
000003f0: 0ccc 89bf 1ca0 a73f 8b67 63bf 3fe8 a7bf
-0.040577527 -0.8833966 0.058432207 0.5838365 -3.1000118 -0.050681487 -0.69273466 -0.09796093
0.8708669 0.17611444 -0.8557665 1.0030591 -0.026622852 0.1663867 1.4854398 -0.21872167
-2.0196044 -0.16053404 0.036733203 -0.7111136 0.5621617 -0.27925032 -1.0463274 0.17091909
-0.7596374 -0.32836097 1.2085165 0.0076712286 -0.40816274 -0.46402004 -0.10257319 0.29073417
0.0027903777 0.32471985 0.26744333 0.9471866 1.8385378 0.46428317 1.2759391 -0.2894722
1.0742844 -0.5911893 0.4341348 -3.0791495 -0.2295022 2.120001 0.050994094 -1.7875596
0.5334665 0.21696346 0.77480346 -1.0489873 -0.8682336 -0.83583146 0.5565276 0.8384025
-0.686568 0.47645614 -0.46030656 -0.29272354 -0.23353475 -0.14271724 0.17917477 -0.9888982
0.36803198 -0.12265889 0.7119652 -0.40396082 0.771925 0.34315023 0.1595123 -0.6657351
-0.2879076 -0.32732734 0.63614696 -1.3433695 0.60253406 -0.5183893 0.110349715 -0.18122695
0.16317588 0.6292914 -0.03953563 1.0829223 -0.42929378 0.75629365 0.88125867 -0.428098
2.184917 -0.118889615 0.12686825 -0.7927923 0.91679543 -2.2320442 -0.5784756 -2.0311313
0.70626044 0.24906659 0.5432756 -0.32281432 -0.2784019 0.25056788 -0.14935778 -0.78139406
-0.9755647 -0.69885874 0.96679896 1.0001937 -0.8318626 -0.29436678 -0.9271679 0.15295137
2.1190498 0.58474797 -0.5969086 0.19255577 0.4997313 -0.3328408 0.08515685 -0.3735306
-0.7165073 -0.0028147197 0.9418083 0.3892021 -0.08430423 -0.26137212 0.4466652 0.42662442
-1.548412 -0.07384041 -1.7416404 -0.050610606 -0.08509912 0.4616282 -0.102928944 -0.6217552
-0.11222701 -0.12935877 0.19754092 -0.8086699 0.39151204 0.391913 -0.15200052 -0.029150436
0.85232204 0.45275378 0.28850386 -0.73240215 -0.60619295 0.5691117 0.6061888 1.9253575
-0.5104796 -0.32018113 0.8337575 0.13812186 -0.31641713 -2.095 -0.27040288 -0.34505072
-0.40867165 -2.4132407 0.47155717 -0.9809362 -0.26412755 0.4075763 1.9162388 -0.8683893
-0.013386273 1.0380194 0.008462863 1.2020057 0.19757318 -0.4314628 -0.56330955 -0.5808132
0.17289883 -0.95881015 -0.09499364 0.17883089 0.34008494 -0.31099877 0.26649904 -0.5936995
-0.3874069 0.6899866 -0.4692845 0.2751234 1.3840857 -0.22146118 -2.9582665 1.7250184
-0.049416866 -0.6186409 -0.61988074 0.93285674 -0.25401407 -3.5827212 0.093021624 0.54468894
-0.8216395 0.19120626 0.8340233 0.29556748 -0.5747689 0.6194068 1.607997 -0.3090149
0.27309063 0.032391753 -0.37268654 -0.73410004 0.040776685 0.58306557 0.5289183 1.0754504
-0.43795508 0.1605738 -0.010015321 -1.2010357 0.7578069 0.11470168 0.27598393 1.0668024
-0.27480042 0.92091703 0.23309225 -0.017860645 -0.074955724 -0.3271331 -0.5989245 -0.9316362
-1.0967627 0.82526296 0.13031591 0.042563718 0.032716837 1.1729292 0.93548036 0.5771465
1.1868514 1.0704975 -0.3324239 0.20946473 -0.032471363 0.19319779 -1.2374412 -0.62578344
-0.3068503 0.032994017 -0.092748 -0.21143839 -1.0765395 1.3095737 -0.8882987 -1.3117751

linear2.weight f4 [5, 256]
00000000: a626 74bd d56b b5bc 59dc cbbc bf06 683d
00000010: c9ef 993c d518 d4bc b83e 82bd 8152 103d
00000020: 184b ddbb 7ff5 fdbc 3329 99bc 5bd7 793d
00000030: e8a0 08bd 741b 973c 71b7 7e3d 077c f7bc
00000040: 8d0c be3c 2864 203d c86a 9c3d 37f1 9abc
00000050: cc60 98bd 4e33 5fbb 804b 823d 01d3 823b
00000060: 0e62 7c3c 9532 d4bc dbc2 aebc adfe 7d3d
00000070: 001c c8bd 4721 6bbd 3b39 e5bb 7f30 3a3a
00000080: 06ca 103c 9154 9ebb 9c90 f63c 362d 1fbd
00000090: a03d 44bd 976b 7abd 8c9e 0ebd 7a44 9cbd
000000a0: 50e7 5e3c 4d59 0d3d fef2 bdba b9ff 2b3d
000000b0: 692c 4e3d 694e 98bd 25cc 813d 192a 673c
000000c0: 921a fb3c 8650 643c 746e a0bd a45d e53c
000000d0: b339 743c e272 393c 1d2b 0b3b 3420 b1bb
000000e0: 2daa a73d 7995 5d3c d702 4cbc c57a 5a3d
000000f0: f387 4e3d b743 7dbd c7ec 41bc ba83 a93d
00000100: 059e 4bbc abad 823d 9143 753c fba6 f4bc
00000110: aab0 88bd fd1c abbc d7ae cebc a280 36bd
00000120: 28d9 f9bc 36bf 7cbd 90c1 a83c 521f 0e3e
00000130: cd5c 03bb 25f9 40bd 1012 3a3d fb86 993d
00000140: e5a0 983c b8d5 ff3b fd98 683c edf0 953b
00000150: f722 fb3c a7cc 043d 513d f7bc c48c 2fbd
00000160: fe0b 8bba c0e6 f6bb 8227 00bd 0c60 a53a
00000170: 9e4a bdbc f13d ed3b 968a 623d 5730 e53d
00000180: 1151 95bd 3795 87bc c0d6 17bd 4e83 2cbd
00000190: 86cb 9fbc 5086 34ba 8a35 d83c 130f 79bd
000001a0: 4e86 efbc aec6 ae3b 6a53 ddbc 904e 3b3c
000001b0: 703b 1a3b 4c5c 4ab9 f910 23bc 02e6 00bc
000001c0: c82e 0f3d c870 e3bc e871 213d cfef 053d
000001d0: 283f 763c 611b b8bc 909e 563c 6153 d23b
000001e0: 2190 afbc a20f 153b 504f 0a3c 8911 51bd
000001f0: 7c0e c3bc 2f0a a9bb d110 6abc 41c9 e6bc
00000200: b037 d13c 8518 953d 44e3 46bc 3cd5 67bd
00000210: e136 95bd 477c 91bd 19e6 a2bb 0ec0 a03d
00000220: 009f 3abd 8c93 ddbc c846 593d d4e7 a53c
00000230: 0915 8dbd 7f80 e63c d9f3 df3c dae0 8d3d
00000240: 0e63 0a3d 1a8e 8ebd f92b a73c 5a74 5bbc
00000250: d26d e9bc 9b75 cc3d 1141 86bd b4b4 3b3d
00000260: 8d72 683d 3c61 77bc aba0 553d fefe 923a
00000270: 673d 803d 2f35 963b 2423 2d3d 24a4 7bbc
00000280: 3d63 76bc bbc2 ebbc 9ecf 1e3c ebdf 25bb
00000290: c31f c53a af5e 34bd 1a5c 29bd 1aba e9bc
000002a0: aa57 7e3c 1278 3d3d 2baa 32bd c399 6b3d
000002b0: 1320 073c abb5 7f3c 5d02 743d ba0f 2b3d
000002c0: 26be dfbc af36 4d3c 66df c9bb 65e0 10bd
000002d0: 00bc 403c 975b 0c3c f91a d5ba 41a2 30bd
000002e0: b1c2 98bd 75e0 083d 9539 fabc 6724 bf3b
000002f0: 7ee6 eb3c b3ad 973c 066f a13d 2269 c33c
00000300: 008f 503c 4408 8bbb 63b7 b93c 1173 463d
00000310: fe53 223c e3fe 773d 7871 713d cff7 84bc
00000320: 5778 0cbc 9ca1 f7bb c024 583d 7ee6 2b3c
00000330: 588b 0b3d 0138 19bd ee9d 083c a368 b13c
00000340: 1dd4 7a3d 2e35 013c 33e8 41bc 937f 993d
00000350: 5c06 f03c 4a82 a6bc 30f9 fdbc d007 09bd
00000360: 8bd7 2e3b 5027 053d 0d0e 703c e55a bf3c
00000370: 786a a9bc 4ae6 42bd 3620 1abc 563e fbbc
00000380: df08 cf3c 402d 483c fc83 2e3d 3885 0cbd
00000390: 2d93 b6bc 23df 193d a6fc f73c 084b 8bbd
000003a0: b0c4 bcbc 8d0d 913b b87c 3dbd de9e 803d
000003b0: 0821 a1bd 8e57 efbc bc95 283d 5a5a 69bd
000003c0: 3153 fbbb 3730 38bb aa61 90bd 20a5 4e3d
000003d0: bf89 66bd a060 aa3b eaf3 263e 48be 7f3d
000003e0: 00c5 373c 3bcf b73c 3bfe 64bc 28ab 3e3d
000003f0: bff1 cb3c 7dc9 04bd 2582 12bd 2295 553c
-0.05960717 -0.022146145 -0.024885343 0.05664706 0.018791096 -0.025890747 -0.06359619 0.03523493
-0.0067533366 -0.03100085 -0.018696403 0.060996395 -0.033356577 0.018445708 0.062186662 -0.030210508
0.023199344 0.039158016 0.076375544 -0.018913848 -0.074403375 -0.003405768 0.06362057 0.003992439
0.015404237 -0.025903026 -0.021333149 0.062010456 -0.097709656 -0.057404783 -0.006995348 0.00071025634
0.008837229 -0.0048318584 0.030098252 -0.038861476 -0.047910333 -0.061137762 -0.03481917 -0.07630248
0.013604954 0.034508992 -0.0014491973 0.041991923 0.05033532 -0.074368306 0.063377656 0.014109158
0.030652318 0.013935214 -0.07833567 0.027998753 0.014906335 0.011318894 0.0021235414 -0.0054054502
0.08186755 0.013524407 -0.012451849 0.05333974 0.05042262 -0.061832156 -0.011836237 0.08277078
-0.0124278115 0.06380781 0.014969722 -0.029864779 -0.06674321 -0.020887846 -0.025229855 -0.044556268
-0.030499056 -0.06170579 0.02060011 0.13879135 -0.0020044327 -0.047112603 0.045427382 0.074964486
0.018631408 0.0078074597 0.0141966315 0.0045758397 0.030656321 0.032421734 -0.030180605 -0.042858854
-0.0010608432 -0.0075348318 -0.031287678 0.0012617125 -0.02310687 0.00724005 0.055307947 0.11190861
-0.07290853 -0.016550643 -0.037070036 -0.04211741 -0.019506227 -0.0006886469 0.026392717 -0.06080539
-0.029238846 0.005333743 -0.027017314 0.011432305 0.0023533963 -0.00019298604 -0.009952777 -0.007867338
0.034956723 -0.02776374 0.03941527 0.032699402 0.015029706 -0.022473993 0.013099328 0.006418631
-0.02143103 0.0022744914 0.008441761 -0.051042113 -0.023810618 -0.0051586847 -0.014286236 -0.028172137
0.02553925 0.07280067 -0.012139145 -0.05659984 -0.07285858 -0.07103782 -0.0049712774 0.078491315
-0.04556179 -0.027047895 0.053046018 0.020252146 -0.06888778 0.028137444 0.027337955 0.06927653
0.033785872 -0.069606975 0.02040671 -0.01339444 -0.02849475 0.09983369 -0.06555379 0.04582663
0.05674987 -0.015098866 0.052155178 0.001121491 0.062617116 0.0045839767 0.04226984 -0.015358958
-0.015038309 -0.028779378 0.0096930545 -0.0025310467 0.0015039373 -0.04403561 -0.0413476 -0.028531123
0.01552383 0.046257086 -0.043619316 0.057519685 0.008247393 0.015607278 0.059572566 0.041763045
-0.02731235 0.012525245 -0.0061606644 -0.03537025 0.011763573 0.008566759 -0.0016258649 -0.043123487
-0.074590094 0.033417184 -0.030545035 0.005833197 0.02879643 0.018515443 0.07882504 0.023853842
0.012729406 -0.0042429287 0.022670453 0.04844958 0.009907721 0.060545813 0.058946103 -0.016231446
-0.008573613 -0.007557107 0.052769423 0.010491965 0.034068435 -0.037406925 0.008338435 0.02165634
0.061237443 0.007886214 -0.011835146 0.07495036 0.029299907 -0.020325799 -0.03100261 -0.033454716
0.0026678767 0.032508194 0.0146517875 0.023358772 -0.020680651 -0.047582902 -0.009407094 -0.030669373
0.025272785 0.01221782 0.04260634 -0.034306735 -0.022286976 0.037566315 0.03027184 -0.068014205
-0.023043007 0.004426664 -0.04626152 0.062803015 -0.07867628 -0.029216554 0.041158423 -0.05697093
-0.0076698293 -0.002810491 -0.07049878 0.050450444 -0.05628371 0.005199507 0.16303983 0.062437326
0.011216402 0.022437682 -0.013976629 0.046549946 0.024895547 -0.032418717 -0.035768647 0.013036044

linear2.bias f4 [5]
00000000: e140 493d 4912 a1bf 2c94 54bf b519 8cc0
00000010: e4c6 5140
0.04913414 -1.2583705 -0.8303859 -4.378138 3.2777643
