1st_model/combineCL.pt (torch_old, 531267 bytes, 4 tensors)

linear1.weight f4 [256, 512]
000000 19 26 c9 3d e2 20 5b 3c 0e 4d e1 3c a1 52 18 3c
       0.0982172 0.013374539 0.027502563 0.009297044
000010 17 3b d7 bd e8 5d 9a 3c d9 59 e0 bb f5 35 da 3c
       -0.10509317 0.018843606 -0.006846648 0.026637057
000020 a4 99 27 bc 2f 0e 1e bc 33 a1 99 bb be bb ec bc
       -0.010229502 -0.009646936 -0.004688406 -0.028898116
000030 cb f8 89 3d 46 b3 09 bd 03 53 29 bd 84 23 6c bc
       0.067369066 -0.033618234 -0.04133893 -0.014412764
000040 52 19 64 bc 56 0c 2c 3d 29 02 f7 3b 49 e1 a0 ba
       -0.013922052 0.042003952 0.0075380993 -0.0012274171
000050 f5 09 1c bc f0 73 87 bd e1 b5 3b 3d 54 69 32 bc
       -0.009523858 -0.0661391 0.04582775 -0.01088937
000060 41 68 29 3d c2 16 51 3c ac 14 34 3d 89 4b 71 3d
       0.04135919 0.012761774 0.043965027 0.058909927
000070 50 cf ec bc 30 86 20 3d a6 e4 a8 bc e2 4f 82 3d
       -0.028907448 0.03919047 -0.02061684 0.06362893
000080 8a ae 6b bd 50 b7 20 bc 75 ec a0 bc 76 b7 98 bd
       -0.0575395 -0.00980933 -0.019644001 -0.074568674
000090 59 94 58 3c 17 0d bd 3c eb fa e6 bc 3b 40 ae bd
       0.013218963 0.02307753 -0.028195819 -0.08508345
0000a0 e4 58 83 3c 9d 2b 4f 3d bb ca 5c 3d af 95 52 3c
       0.016033597 0.050578702 0.053904276 0.01285307
0000b0 4d 08 9c bc eb 59 a7 bd e8 bb 91 bb 9c b8 01 3c
       -0.019046927 -0.08171447 -0.004447449 0.007917549
0000c0 ee fd 58 bd bf a1 73 bd a4 9e 3e 3a aa d1 91 bd
       -0.05297654 -0.059480425 0.0007271564 -0.07120068
0000d0 62 dc ae bc 59 1b ae bb 35 62 10 3c 2b 71 47 3d
       -0.021345321 -0.0053133187 0.008812477 0.04869191
0000e0 52 26 2e bc 23 2d 0a 3d c0 3e 72 3a 11 28 04 3d
       -0.010629253 0.033734452 0.0009240918 0.032264773
0000f0 df ea ee bc e5 94 05 3b a8 52 c5 bb 2c 00 ca 3c
       -0.02916473 0.0020382938 -0.0060218163 0.024658285
000100 d8 d2 35 3d 6a 9a 07 3d 91 3f 43 bd 08 41 89 bd
       0.04439053 0.033106245 -0.047668044 -0.06701857
000110 d8 97 0d 3d a8 d7 91 3c db 13 8c 3b 77 fd e5 3c
       0.034568638 0.017803028 0.004274828 0.028074963
000120 0a ed 8d bd fe 5e 04 3c 4b 2b 43 3c 01 6d 11 3d
       -0.06929977 0.0080792885 0.011912177 0.035504345
000130 52 7f 51 bd 82 96 24 bd da 55 87 3c c1 20 f4 3c
       -0.051146813 -0.040182598 0.01652043 0.029800775
000140 2c be ec 3c b4 cd 81 bb 38 f4 65 bc 70 1a f5 3b
       0.028899275 -0.0039612893 -0.014035277 0.0074799582
000150 09 75 4f 3b 68 0e c0 bd c7 2c d5 bd 7d ba 76 3d
       0.0031655452 -0.09377748 -0.10408931 0.060236443
000160 e6 3e 78 3c 14 a4 08 3d 43 7f 06 3d f6 64 11 3d
       0.015151715 0.033359602 0.03283621 0.035496674
000170 d4 0c 70 3d 86 2f f1 ba 3f 65 04 bd ad cc 40 3c
       0.058605984 -0.0018401004 -0.03232312 0.0117675485
000180 45 0e 15 3b ee ee ef ba ab 1a 5c 3d 59 3c 10 bc
       0.00227441 -0.001830546 0.05373637 -0.0088034505
000190 2a ac d1 3c 25 02 2d bc 38 a9 7e bc 04 c4 83 3d
       0.02559479 -0.010559593 -0.015543275 0.064338714
0001a0 d5 39 4a 3d 5b 65 57 bb 1f 35 82 3d e4 8c 78 3b
       0.04937156 -0.003286681 0.06357788 0.0037925774
0001b0 6c 1a 18 3d 2f 0d 3a 3c 3a 90 8f bd 9c 81 96 3d
       0.037134573 0.011355682 -0.07009931 0.0734894
0001c0 3e f5 94 3d cf 6b b5 3c 9a 52 19 bd 70 52 d8 bc
       0.07273339 0.022146134 -0.03743229 -0.026406497
0001d0 29 2f 87 3d f7 8b 24 3b 49 73 95 b9 e6 08 87 bc
       0.06600792 0.002510784 -0.0002850539 -0.016483735
0001e0 8b ce 24 3d 9a be ba 3c af 89 83 3d c9 d0 fd 3c
       0.040236037 0.022795964 0.064227454 0.030983346
0001f0 3f 88 f9 3c 4d 10 54 bd 17 9a 38 3d 9f 61 76 3c
       0.030460475 -0.051773358 0.045068827 0.015037923
000200 fa a7 a5 bc 30 bb 35 bd 06 ec 08 3d cd 4e b9 bd
       -0.020221699 -0.04436797 0.033428214 -0.09048233
000210 cf 30 cc 3c b0 92 4f bd c2 a4 0d 3d 4e b0 b1 bd
       0.024925618 -0.050677 0.034580953 -0.086762056
000220 3e 32 03 bd 57 f0 36 bd 9f 5d 36 3d 4f 33 db bc
       -0.032030337 -0.0446628 0.044522878 -0.026757864
000230 64 55 0e 3d c8 eb 16 bb 88 d5 f1 bd 5b 7c 85 3b
       0.034749404 -0.002302872 -0.11808306 0.004073662
000240 7e e7 1f bc 6b 0c 91 bd 0d cc f6 3c 50 a6 d5 3a
       -0.009759782 -0.07082447 0.030126596 0.0016300175
000250 17 82 bb 3c 79 4e 60 3d 5a 8b 33 3b 32 2c 5d 3d
       0.02288918 0.054762337 0.0027396292 0.053997226
000260 19 26 11 bc ab 4d 7e 3b 88 de 3a 3d 07 e7 57 bc
       -0.008859181 0.0038803618 0.04562238 -0.01317764
000270 1f fe 09 bd c4 fb bf bc a9 87 76 bd 68 b5 27 bd
       -0.033689614 -0.02343548 -0.06018797 -0.040944487
000280 9a 34 bf bb 05 d6 6c bc e6 c8 97 bd 7a 19 b7 3c
       -0.005835128 -0.014455323 -0.07411365 0.022351015
000290 ea 3e 38 3d 3c d9 6f 3c 87 67 96 3d c6 33 33 3d
       0.044981875 0.014639195 0.07343965 0.043750547
0002a0 45 3d f9 3b cc 52 5d 3d fc b7 13 3d cc 04 86 bc
       0.007606181 0.05403404 0.036064133 -0.01635971
0002b0 66 cb 8c bc 27 21 ac bd 0d 2c 70 bc 40 91 4d bc
       -0.017186832 -0.08404761 -0.01465894 -0.012546837
0002c0 7a 11 f0 3c 83 63 12 3b b9 13 a2 3c 62 03 40 3c
       0.029305208 0.0022337146 0.019784795 0.0117195565
0002d0 ab 5b 8c bb 2f e3 a5 bd 48 78 21 bd 6c 17 ea 3c
       -0.0042833886 -0.080999725 -0.03942135 0.028575622
0002e0 c2 db 1e b8 08 13 4b 3b f3 f2 15 bc 8c 9c 8b 3c
       -3.78748e-05 0.0030986685 -0.009152162 0.01704242
0002f0 71 9f c5 3c db 0a 80 bd 9d 39 4b bc c5 da e6 3c
       0.02412388 -0.062520705 -0.012403873 0.02818049
000300 54 46 3f bb cd 89 af bc 27 ab 52 bd ee 14 4a bd
       -0.0029186206 -0.021428013 -0.051432755 -0.049336366
000310 52 1a 5a 3c 9b 55 67 3d e2 cf 16 bd 81 c4 a6 3c
       0.013311939 0.056478124 -0.036819346 0.020357372
000320 c0 3d b7 3c 20 18 26 3c 18 2f f7 bb 67 46 81 bc
       0.022368312 0.010137588 -0.007543456 -0.01578064
000330 fa c6 3d 3d 78 9a 41 bd 89 e0 d9 3c a1 9f ae 3d
       0.046332337 -0.047266454 0.026596325 0.085265405
000340 e7 a1 c6 3d 28 fb a5 bb 9f c7 9a 3d 0d f1 b0 3d
       0.09698849 -0.0050653405 0.07557606 0.08639727
000350 59 5d e6 bb ad f7 45 3d 4e 06 68 bc 24 a2 8d 3c
       -0.007030171 0.048331905 -0.014161659 0.017289229
000360 7b a3 bd bb f3 7a d5 bc 79 d9 93 3d 75 25 d8 bc
       -0.0057873107 -0.026059603 0.07219214 -0.026385048
000370 ce e0 ab bd 54 2f 23 3d a6 39 b5 bc 9a b0 d9 bc
       -0.083924875 0.039840057 -0.022122215 -0.026573468
000380 85 6c 9c bc 6d 64 e4 3b 32 5a ac bd 00 de 5a bc
       -0.019094715 0.0069699795 -0.08415641 -0.013358593
000390 4c 40 71 bc 34 80 8e 3d 65 37 93 bd 6d 6a 1c 3d
       -0.014724802 0.069580466 -0.071883 0.038187433
0003a0 33 b0 a6 bc 0b 52 fe bc e5 53 34 3d 3b 76 eb bd
       -0.02034769 -0.03104498 0.04402532 -0.1149716
0003b0 b4 30 9c 3d 65 b2 72 3d f8 ef 94 3d 34 ca 95 bd
       0.07626477 0.05925216 0.07272333 -0.07313958
0003c0 b3 6a 8d 3c 57 cc 02 3c 2a cb ee 3b 17 d1 0f 3d
       0.017262792 0.007983289 0.0072874026 0.035111513
0003d0 69 47 3e bd 79 39 fc ba 0c bd 82 3d ff e8 92 3b
       -0.04645482 -0.0019243202 0.06383714 0.0044833417
0003e0 eb 07 b4 3d b5 9d 33 bc fd 46 92 3d 7c af 6a bd
       0.08790573 -0.010962893 0.07142446 -0.05729626
0003f0 d8 17 3d 3d c6 69 94 bb 41 5f 8b bd 82 db bd 3c
       0.046165317 -0.0045292107 -0.068052776 0.023175959

linear1.bias f4 [256]
000000 7d 93 16 bf b4 33 aa 3d ef 8e 57 3e a1 af 37 bf
       -0.588188 0.08310643 0.21050619 -0.71752363
000010 1b e1 97 3d 1d be f6 be d7 23 0d 3f a8 05 bc bc
       0.07415982 -0.4819192 0.5513281 -0.022951916
000020 50 93 78 3e 88 2d 38 3f 54 c8 f6 be af c5 7b be
       0.24274945 0.71944475 -0.48199713 -0.24587129
000030 3b db 97 be 6c 7e d7 be 13 80 9c 3d 15 86 f3 3e
       -0.29659447 -0.4208864 0.07641616 0.47563234
000040 af e2 02 be 3c 42 df bd 67 d8 fd 3c 07 b4 b7 3e
       -0.12781785 -0.10901305 0.030986978 0.35879537
000050 da cf 30 be 3b ab 8e 3d 67 11 9a 3e 5f 44 a3 3e
       -0.17266789 0.06966253 0.30091402 0.318881
000060 62 1b 10 bf 9e 3d d8 be 28 d9 33 3f 33 43 1f be
       -0.5629178 -0.4223451 0.7025323 -0.15552978
000070 15 a8 56 3e ce 24 c1 be ac 62 17 be eb 6b 05 bf
       0.20962556 -0.37723392 -0.14783734 -0.52117795
000080 f6 36 20 be 7b 4e a7 3e 52 69 db be 51 e8 2b 3f
       -0.15645966 0.32677063 -0.4285379 0.6715136
000090 ea fb d4 bd be 39 5d be 8e dc fa 3d 01 ce 6c 3e
       -0.10399611 -0.21604058 0.12249099 0.23125459
0000a0 9e 7c 76 3e 5c 34 ca bd d4 4d ab 3e 78 4a c6 3d
       0.24070975 -0.09873268 0.33457816 0.096821725
0000b0 f6 7d d8 3d 5a 9b b5 be a2 b5 cb be 6b 63 69 bd
       0.105709 -0.35470086 -0.39787012 -0.056979578
0000c0 a5 f4 af 3e af 05 d2 be 07 31 5b be 6f 4d 3a 3c
       0.34366336 -0.4101996 -0.21405421 0.011371001
0000d0 3b 4f 3d 3e 79 70 5c 3d 5f c1 47 be 39 22 ea 3e
       0.18487255 0.0538182 -0.19507359 0.45729235
0000e0 5a f9 07 3e 17 96 9d be 80 02 ae be 39 0f a2 3d
       0.13278714 -0.30778572 -0.33986282 0.0791306
0000f0 3f 2b 0b bf a8 a8 aa 3e d7 37 e4 bd a6 d4 a8 be
       -0.54362863 0.333318 -0.11143463 -0.32974738
000100 03 3b 59 3c bc 9b 88 3e 48 11 98 3e 13 9b 07 3e
       0.013258698 0.26681316 0.29700685 0.1324275
000110 bb 67 0f 3d e9 6b ed 3e 0a 76 3a be 81 e4 bc bd
       0.035011034 0.4637139 -0.18209091 -0.09223271
000120 48 af 12 bf 01 d7 c0 3e 4a 7f 31 be 55 2d bd be
       -0.5729871 0.37664035 -0.17333713 -0.36948648
000130 1a 7e 62 be 34 ea 38 be d9 88 ac 3e 36 93 38 3e
       -0.22118416 -0.18058091 0.33698156 0.18024907
000140 57 01 77 3e cd 31 19 3e 78 70 fe 3e c4 07 cf be
       0.24121605 0.14960404 0.49695182 -0.40435612
000150 34 c7 ba be 5e c7 31 bf 35 ba cd 3e db 27 5e 3e
       -0.36480105 -0.69444835 0.40181127 0.21694891
000160 12 da 10 bf 67 f0 0f 3f 3e dd 51 be fd fc 5c be
       -0.5658275 0.562262 -0.20494553 -0.21580882
000170 22 34 6b bd a6 15 0a 3f 74 79 e7 be 9e 98 07 bf
       -0.057422765 0.5393928 -0.4520985 -0.5296725
000180 d7 17 22 bf e6 fb 09 3f 3d e2 7d bc 6e 29 22 3f
       -0.63317627 0.5389999 -0.015495834 0.63344467
000190 4f f5 06 be 89 5c 44 be 39 7c 2c bf 1c b1 15 bf
       -0.13179515 -0.19175924 -0.6737705 -0.5847337
0001a0 a3 6a 28 bd 4d 52 14 be fb 66 25 3f 92 76 d9 be
       -0.04111732 -0.1448452 0.6461026 -0.42473274
0001b0 5b 66 96 be cc 4b 98 3e a2 fa 2d 3e b6 5c e8 bd
       -0.29374966 0.29745328 0.1699014 -0.11345808
0001c0 a2 57 bb 3e 94 51 f2 3c 5c 63 f4 be 24 1c d6 3e
       0.36590296 0.029579915 -0.47732055 0.41818345
0001d0 8c b0 d4 be d8 ff 41 be 9b cd 92 be 24 36 bc 3e
       -0.41540945 -0.18945253 -0.2867249 0.36760056
0001e0 0e 8d d6 bd a7 03 13 3f eb 6c 02 3f 59 50 0a 3f
       -0.10476123 0.5742745 0.50947446 0.5402885
0001f0 13 45 8f be 4e ad e7 3d db ed 13 3f 20 d3 7c be
       -0.27982387 0.11312352 0.57784814 -0.24689913
000200 77 54 59 be 1b cf ad be 27 8c 1c 3e ac 07 8c 3d
       -0.21223627 -0.3394707 0.15287839 0.06837401
000210 03 2f cd be c7 cb 9c 3e c2 b6 92 3e 26 1a cd be
       -0.4007493 0.3062422 0.28655058 -0.40059012
000220 ad 46 98 be 64 73 21 3f af ba 47 3e 7e 20 bd be
       -0.2974142 0.630667 0.19504808 -0.36938852
000230 7f 5c e2 bd 27 79 f4 bd 97 a9 3a 3e 8e 3c 39 bd
       -0.110527985 -0.119371705 0.18228756 -0.045223765
000240 18 fb 5d 3e 30 9d 0a bd 72 1d a5 3e ca 9b 98 3e
       0.21677816 -0.033841312 0.32249027 0.29806358
000250 f1 5b e5 bc b7 3b ec 3b db 5d ce 3e 9c d2 ab bd
       -0.027997943 0.007209267 0.4030598 -0.0838978
000260 4b a6 1e 3e 7f 0c 9d 3e c8 70 98 3d 10 e7 06 3f
       0.15493123 0.30673596 0.07443386 0.52696323
000270 fc 71 e5 be 73 2e e9 be 7e 07 c2 be 3b 79 94 3d
       -0.44813526 -0.4554325 -0.3789634 0.072496854
000280 61 76 a2 3e 8b 1d 11 3e e2 b3 a9 3d 43 77 9d 3e
       0.3173094 0.14171426 0.08286263 0.30755052
000290 09 f8 a2 3e b2 a7 5b 3e 4f 95 f3 3e 1f 7d d1 3e
       0.3182986 0.2145069 0.4757485 0.40915772
0002a0 5c b9 d9 3d fd 3b d6 3d db 45 4e 3e a9 70 10 bf
       0.106310576 0.104606606 0.20143835 -0.56421906
0002b0 2d 64 0e 3e db 2f 19 3f 5c 4a 13 3e 33 95 52 3e
       0.13905402 0.59838647 0.14383835 0.20564727
0002c0 33 23 60 3e 15 0a e9 be 2a 20 2e bf 6c 5f 1c 3e
       0.21888427 -0.45515504 -0.6801783 0.15270776
0002d0 27 6a a8 3e 51 b2 df bd 05 cb 09 3a e5 4b b5 be
       0.32893488 -0.10922683 0.00052563875 -0.35409465
0002e0 ee 2f 10 bf 1e 11 33 3f b7 b8 63 3e 14 c6 fc bd
       -0.56323135 0.69947994 0.22238432 -0.12342468
0002f0 cb a5 05 bf 2b db 13 be c9 a2 f0 3e 81 48 13 3f
       -0.52206105 -0.14439075 0.46999195 0.5753251
000300 d7 ce 21 3f 82 ad 9e be bd 30 71 bd ab 0a 85 3d
       0.6320624 -0.3099175 -0.05888437 0.064961754
000310 3f fc b6 be 87 9c 14 3e 39 bf 53 be aa b7 a8 be
       -0.35739323 0.14512835 -0.20678414 -0.32952625
000320 2b 47 f3 3d 61 1f 91 3e 0a 5e af be 15 66 06 be
       0.118788086 0.28344253 -0.34251434 -0.13124879
000330 aa b5 ac be 87 54 e2 3e 69 57 a3 be 0e 56 4b be
       -0.3373235 0.44205114 -0.31902626 -0.19857046
000340 17 17 b6 3e 8f 6c 12 bf 7d 1b 0e bf ef bf 84 3d
       0.3556449 -0.571969 -0.55510694 0.06481921
000350 b1 6b f6 3e 67 ab 4d 3e cd 21 f8 be f2 aa 23 bf
       0.48129037 0.20084916 -0.48463288 -0.63932717
000360 a4 8e 16 bc ff 12 82 be 61 8a 3c be 3a b3 3d 3d
       -0.009189282 -0.25405118 -0.18412162 0.046313502
000370 ee 9e cc 3e 92 d5 e7 3d f1 b3 13 bf 41 d1 16 3f
       0.39965004 0.11320032 -0.57696444 0.58913046
000380 16 6b 06 3e 68 ea 10 bf d8 7d 58 be f9 3e d7 3e
       0.13126788 -0.56607676 -0.21141756 0.42040232
000390 a0 e8 80 be bc d6 40 3e ee c7 3e 3d 65 97 df be
       -0.2517748 0.18831915 0.046577387 -0.43670192
0003a0 f7 8e 40 be 81 2e 91 be 8b 9e ee 3d 9b a3 a8 3e
       -0.18804537 -0.28355792 0.116513334 0.3293732
0003b0 01 8c 33 be 4d c8 07 be f8 f5 39 be 34 45 2f 3f
       -0.17533876 -0.13260002 -0.18160236 0.6846497
0003c0 af 1e 03 3f 36 1f 10 3d 8b 2a 14 3e a0 09 c9 3a
       0.51218694 0.035186015 0.14469354 0.0015337951
0003d0 c3 90 0a bf fd fd a9 3e 6f f5 11 bf 9f 3c 0a bf
       -0.5412714 0.3320159 -0.57015127 -0.5399875
0003e0 e2 a7 09 3c 38 34 b0 be dd 8b f5 be 1c 26 ab be
       0.008401843 -0.3441484 -0.4795827 -0.33427513
0003f0 f0 dc 7b be 31 60 f2 3e 4f 78 f0 bd cd a6 a5 3b
       -0.24596 0.47339013 -0.11741697 0.0050552846

linear2.weight f4 [5, 256]
000000 58 aa 89 bd 8b 26 88 3d b7 ec 42 3d b9 2d 5f bd
       -0.067219436 0.066479765 0.04758903 -0.054486964
000010 31 fc 5d 3c 07 6b 36 bd 4b 3e 41 3d 66 31 77 3d
       0.013548897 -0.044535663 0.047178548 0.060349844
000020 b1 73 54 3d ea f4 92 3d d1 ef 3f bd 6f 46 ac bd
       0.051868144 0.0717562 -0.046859566 -0.08411872
000030 30 ff 44 bb 6d 09 83 bd 58 11 72 3d 02 4e 99 3c
       -0.003005933 -0.06398282 0.05909857 0.018713955
000040 e7 4e 5c 3d dd c4 85 bd 90 fb 87 3c eb e8 79 bd
       0.053786185 -0.06531689 0.016599447 -0.061013144
000050 7d d5 a0 bd 37 85 3a 3c f3 d1 e9 bb 98 7c 19 3d
       -0.0785322 0.0113843 -0.0071356236 0.037472337
000060 41 af bc bc b7 5e f6 bc 91 a1 0a 3d bb a7 59 3d
       -0.023032786 -0.03007446 0.033845488 0.053138476
000070 7d 0c fa 3c 12 ad 84 bd 59 fb 42 bd 59 c6 ce bb
       0.030523533 -0.06478323 -0.047602985 -0.006310266
000080 1c de aa bc 18 cf 10 bc 35 07 29 bd 15 14 85 bd
       -0.020857863 -0.0088384375 -0.04126664 -0.06497971
000090 bf 2b b5 3c d6 84 f2 bc 8e 6f 0e bd 5e c3 2b 3d
       0.022115586 -0.029604357 -0.034774356 0.041934364
0000a0 63 c3 4e 3d 85 96 20 bd 3c 01 b0 3c dc a1 90 3b
       0.050479304 -0.039206047 0.021484964 0.0044138264
0000b0 d6 e0 99 bd 93 92 4c 3c 4d ec cb bc 9f 2d 16 bc
       -0.07513587 0.012486118 -0.02489295 -0.00916615
0000c0 5e d2 14 bd 7e 31 27 bd 4e 07 ac bd bf 9a a5 bb
       -0.036333434 -0.040818684 -0.08399831 -0.0050538476
0000d0 64 08 1f bc da 0b 81 bd 40 f5 46 bd a2 a5 fa 3b
       -0.00970659 -0.06301089 -0.048573732 0.0076491395
0000e0 52 f4 bd bc 17 11 d0 bc 0f 28 78 3c 34 36 53 3b
       -0.02318779 -0.025398774 0.015146269 0.0032228353
0000f0 c1 a7 85 bd 1a 4b 8f 3d 02 da a8 bd b4 98 59 bd
       -0.06526137 0.06996746 -0.08244707 -0.053124145
000100 23 dc 1d bd 39 34 1f 3d d1 d0 64 3d c8 78 71 bd
       -0.038540017 0.038868163 0.055863205 -0.058953077
000110 0f b8 b1 bd c7 11 9a bd f0 fb 12 3b 44 3f 81 bd
       -0.086776845 -0.07522922 0.0022427998 -0.06310895
000120 70 1d 19 bd 98 41 db 3c f2 ac c8 3c bd c6 6f bd
       -0.03738159 0.026764676 0.02449653 -0.05853914
000130 9b ad d3 3c 58 77 88 3d 2a 38 b9 3c 9a 2e 28 bb
       0.025839617 0.06663388 0.022609789 -0.0025662542
000140 e9 70 00 bc 2e a3 62 3c b0 56 2a ba d7 44 2f bd
       -0.00783942 0.01383285 -0.0006497903 -0.04279026
000150 e0 b7 a0 bc fa bc cd bb ab c3 b8 3c 21 45 e6 bb
       -0.019618928 -0.0062786313 0.02255424 -0.007027284
000160 e9 4f 9e bd f2 a0 e2 bb 98 d9 3f bb be 85 2c bd
       -0.077300854 -0.006916159 -0.0029273983 -0.042119734
000170 2b 29 1f bd e9 3e 25 3d c5 1a 82 bc cc a0 12 bd
       -0.03885762 0.0403432 -0.015881905 -0.03579788
000180 67 84 b5 bc a4 83 51 3d bf e2 80 bd f8 7f 68 3d
       -0.02215786 0.051150933 -0.062932484 0.056762666
000190 b4 78 5c bd ff 88 3c 3d 86 b6 45 bd 11 65 9d bd
       -0.05382605 0.046029087 -0.04826977 -0.076852925
0001a0 96 52 f9 ba 47 cf 05 bd 7c 0c 41 3d 25 e7 a2 bc
       -0.0019021805 -0.03266838 0.047131047 -0.019885609
0001b0 5e af 1c bd b1 22 27 3d d1 40 5f 3c e2 27 d1 3c
       -0.03825318 0.04080457 0.013626293 0.025531713
0001c0 4f d7 89 3d 5d 81 76 bd 09 25 5a bd 3b 93 3e 3d
       0.0673052 -0.060181964 -0.053257976 0.04652713
0001d0 53 95 28 bd a6 0d 32 bd b5 6b dc 3c 38 1e b7 3d
       -0.04115803 -0.043470047 0.026906827 0.08941311
0001e0 0a e1 3b bc 68 bb f6 3c 3f 1e 78 3d 25 e6 58 3d
       -0.011467228 0.03011866 0.06057572 0.052953858
0001f0 45 49 ac bd 5f 54 b2 3c bb c7 73 3d 5f 49 22 ba
       -0.084124126 0.021768747 0.05951665 -0.0006190743
000200 08 86 4a bd 2b ea 9c 3d 85 6d 42 3c 0d 4c 48 3c
       -0.04944423 0.076618515 0.011866932 0.012225163
000210 9d 5c b6 bd a5 8a 86 bc 05 ac 0e bd 20 8c 94 bd
       -0.08904383 -0.016423533 -0.03483202 -0.07253289
000220 0c f6 08 bd cd 87 1b 3d 6f e8 87 bc 23 66 53 bd
       -0.033437774 0.037971307 -0.016590325 -0.051611077
000230 52 c1 36 bd aa 1c 66 bd 5f 22 9b 3c 91 dc f7 bc
       -0.04461796 -0.05617968 0.018937288 -0.030256541
000240 de dc 65 3d 59 c7 d6 bc 83 0a 4c 3d 4e 84 5c bd
       0.05611884 -0.026218103 0.049814712 -0.053837113
000250 e2 6e a5 bd 6b 9a 5b bd 4d 8d 40 bd 12 35 ad bc
       -0.0807779 -0.05361406 -0.047009755 -0.02114347
000260 fd 62 5f bb e1 df ff 3c f3 f6 02 3d f8 77 7a 3d
       -0.0034086101 0.031234683 0.03197379 0.061149567
000270 5f 72 17 bd 2f 9b 1d bd 33 48 a9 3c 80 5b 1f 3c
       -0.036974307 -0.038478073 0.02066431 0.009726405
000280 d9 e0 1a bd ab d8 78 3d 7d 2c 4b 3d d9 4c 6f 3d
       -0.037812088 0.060753506 0.049602974 0.058422897
000290 df 91 10 3b cf 2b 73 bd ee 76 77 3d 80 b6 80 3d
       0.0022059602 -0.05936795 0.060416155 0.06284809
0002a0 86 0c 1d 3d 43 d2 71 bd 3e 84 ff 3c 52 ec 03 bd
       0.03834202 -0.05903841 0.031190988 -0.032207794
0002b0 57 77 12 3d 6e a1 91 3d 15 15 5a 3d 35 32 4c 3d
       0.035758343 0.071108684 0.05324276 0.04985257
0002c0 8a 6d e7 bb ec 22 9c bd 28 c8 e2 bc 6b c8 45 bd
       -0.0070626186 -0.07623848 -0.027683333 -0.048286837
0002d0 51 85 e6 3b fa bd eb 3c 97 2e 4d bd 06 5c 41 bd
       0.0070349355 0.028777111 -0.05009326 -0.0472069
0002e0 1e 49 40 bd 2c de 19 3d c2 2c 42 3d 26 5d dd bc
       -0.04694473 0.037565395 0.047405966 -0.027021956
0002f0 cd 03 72 bd 95 ad 9e bc 2a 01 87 3d 03 9b 90 3c
       -0.059085656 -0.01936988 0.06592019 0.01765204
000300 ab c5 88 3d 48 85 e0 3c 14 a9 b3 3d 56 a8 e6 3c
       0.06678327 0.027407303 0.087724835 0.02815644
000310 b4 3d 8c bd cc 3a 54 3c 41 1f d1 bb 71 4e 65 bc
       -0.068477064 0.012953471 -0.0063818996 -0.013995753
000320 25 19 87 bd 6a 0c 30 3c cd 66 23 bd 0f f3 87 3d
       -0.06596593 0.010745147 -0.03989296 0.066381566
000330 e3 c0 8b bb 68 b3 22 3d a4 5a 1c 3c 95 05 5a bc
       -0.0042649372 0.039721876 0.009543095 -0.013306995
000340 59 cd 52 bd 10 cb 83 bc d9 bf b9 bd f7 3d b2 3d
       -0.051465366 -0.016088039 -0.09069795 0.08703225
000350 24 77 84 3d 26 b6 9f 3b 61 19 78 bd 37 68 9f bd
       0.06468037 0.0048740087 -0.06057108 -0.07783549
000360 10 56 10 3b e3 f8 48 3d 0d a6 36 3d 57 52 5b 3b
       0.0022023953 0.049065482 0.044591952 0.0033465826
000370 f6 09 95 3d 19 dd ee 3c 2d 83 9f bd 82 dd 5b 3d
       0.072772905 0.029158162 -0.07788692 0.053678043
000380 cb 80 44 bd 27 84 8b bd 12 8a 46 bc 9f 14 bb bc
       -0.04797439 -0.068123154 -0.012117879 -0.022836981
000390 6a 35 c2 bc 54 65 d9 3d 4f 50 4e 3d 39 f6 5c bd
       -0.02370711 0.1061503 0.050369557 -0.053945754
0003a0 06 bc c3 3c 36 0b 0e bd 2a 84 ab bd 2b 8b e2 ba
       0.023893367 -0.03467866 -0.08374818 -0.0017283907
0003b0 d5 c8 68 bd a4 bd 40 bc 18 e9 a4 bc 44 d0 63 3d
       -0.056832153 -0.011763964 -0.020130679 0.05561854
0003c0 2b 8b 25 bc 79 6e ae 3c 12 06 cf 3d 2c 5c f1 bc
       -0.010103981 0.021292912 0.1010858 -0.029462896
0003d0 3f 6d de bc f0 a5 7d 3d f2 6d 48 bd 62 9b 6e bd
       -0.027151702 0.06192583 -0.048932977 -0.058253653
0003e0 75 9c 98 3c 20 aa d7 bc 95 88 a2 bd a5 fa 27 3d
       0.018629292 -0.02632624 -0.07936207 0.041010518
0003f0 5f 6e 69 bb 08 ab 41 bc 1a 31 3c bd e8 ce 8d 3d
       -0.0035618765 -0.011820562 -0.045945264 0.0692423

linear2.bias f4 [5]
000000 5f 96 ba bd e9 1d 1b 3c dc 7e bd bd a5 ec 9c be
       -0.09110712 0.00946758 -0.09252712 -0.30649295
000010 bc 60 1c 3f
       0.61085105
