2nd_model/combineCL.pt (torch_old, 531253 bytes, 4 tensors)

linear1.weight f4 [256, 512]
000000 d6 71 b1 3d 7b de 12 3d 7a 7f 74 3d 34 8f b2 3d
       0.086642906 0.035856705 0.059691884 0.0871872
000010 34 21 4c bd 1b db 46 3d d1 2b 07 bc bf db bd bc
       -0.049836352 0.0485488 -0.008250193 -0.023176072
000020 0b 58 89 3c 88 f7 92 3d c5 6a f1 3c de fd 2f bc
       0.016765615 0.07176119 0.029469857 -0.010741679
000030 df 1c c1 bc 68 2f bd bc 2d 55 dc bb 21 ce bf bd
       -0.023573337 -0.023093894 -0.006724021 -0.09365488
000040 5e 6a c8 bc 42 8d 18 3c 96 0c 18 3d 50 23 d0 3a
       -0.024464782 0.009311022 0.037121378 0.0015879665
000050 0e 02 94 bb 72 96 03 bc 30 83 d6 3d 94 ef 29 bd
       -0.0045168465 -0.008031474 0.10474241 -0.041488245
000060 7e bf 36 3c e1 8e 1c 3d 4e b0 58 3d d3 7a 1e 3d
       0.011154054 0.038222197 0.052902512 0.038691353
000070 73 bb 50 3c 79 90 8d bc ca fb 27 bd f2 c9 5f 3d
       0.012740004 -0.017280804 -0.04101161 0.05463595
000080 6e d3 4b bd 86 ca 2f 3c 97 05 a8 bd 03 0f 65 bd
       -0.049762182 0.010729438 -0.08204191 -0.05592252
000090 86 e4 20 3d 4c 33 d7 3a 0b a3 b5 3b 4d c7 77 3b
       0.039280437 0.0016418486 0.005543118 0.0037808002
0000a0 f1 28 a9 bd 11 44 70 bc a8 b9 7c 3d 3b fb 17 bd
       -0.08259762 -0.014664666 0.061700493 -0.037104826
0000b0 ea 95 56 3b 2c 3e 79 bc 10 4e 2d 3c 08 04 d7 bc
       0.0032743164 -0.015212577 0.010577694 -0.02624704
0000c0 2e 92 0d bd 72 b1 a3 bc 1d 35 81 3b 8d 2b 75 bd
       -0.034563236 -0.019982073 0.003943099 -0.059855986
0000d0 06 fd 09 bd 62 4c 4c 3b d3 68 57 3d 28 17 92 3d
       -0.033688568 0.0031173457 0.052590203 0.07133323
0000e0 cb ee 2f bd 08 55 31 3d e6 b4 3f 3d d4 5e 41 39
       -0.04295234 0.043293983 0.046803378 0.0001844124
0000f0 eb 99 eb bc d7 59 85 bc 23 98 db 3c 13 8b 2e 3d
       -0.028759917 -0.01627819 0.026805943 0.0426131
000100 46 a7 1e 3c 29 c4 e5 3d 3e 81 03 bd 35 35 59 3a
       0.009683436 0.11219055 -0.032105677 0.00082858215
000110 ef d5 58 bc ab b1 ae 3c b0 8c a7 bc 46 26 b0 3d
       -0.0132345995 0.021324953 -0.020452827 0.0860105
000120 a2 50 17 3b a0 15 3b bb 6b 11 9f 3c 07 9e 27 3d
       0.0023088832 -0.0028546825 0.019417485 0.04092219
000130 a6 26 d2 bc 08 80 8d bd 1c 0f 29 bd 55 9a c1 3c
       -0.025653195 -0.06909186 -0.041274175 0.023633162
000140 fa 1b 20 3d bb da 26 3d 72 b9 8a bb 2e 32 01 3d
       0.03908918 0.04073594 -0.0042335326 0.031541996
000150 fc 4f 58 3a 74 bd 08 be a5 bc f2 bd 9c 0b e5 bc
       0.00082516647 -0.1335352 -0.11852387 -0.027959637
000160 57 93 04 bb ba 00 44 3d 18 aa af 3d dd fb 60 3c
       -0.0020229423 0.047852255 0.08577365 0.013731924
000170 21 6f 1b 3e d7 cb e7 bb 5c af 3d 3c 47 01 a1 3c
       0.15179111 -0.00707386 0.011577453 0.01965393
000180 25 23 9e bd 73 cb 8b 3c dd dc bc bb a3 dd b4 bb
       -0.07721547 0.017064786 -0.0057636336 -0.005519585
000190 14 2b 04 3d 8f 42 95 3c 63 de ee bc 70 4a 7b 3d
       0.032267645 0.018220214 -0.029158777 0.061350286
0001a0 55 46 8c 3c 57 84 86 bb 03 dd 18 3d ac 53 4a 3c
       0.01712338 -0.0041051316 0.03732015 0.0123490505
0001b0 40 17 39 bc 2b 6e f2 bc 98 d8 44 3c b3 96 c3 3d
       -0.011297047 -0.029593548 0.012014531 0.09550228
0001c0 c0 58 31 3d 66 fc 45 3d 58 5a ef bc 0c bb 98 ba
       0.04329753 0.04833641 -0.029217884 -0.0011652424
0001d0 b5 fd 1e 3d 5b 28 b7 ba b5 14 47 3d 84 9b f3 bc
       0.038816173 -0.0013973819 0.048603732 -0.029737242
0001e0 d9 cd a8 bb 35 78 ad 3c 92 a4 8c 3d e2 2a 02 3c
       -0.005151492 0.021175483 0.06867327 0.007944794
0001f0 fc fc a0 bc 67 67 b0 bd 1f 4f de 3c d5 f9 6d bc
       -0.019651882 -0.086134724 0.027137337 -0.014524897
000200 0e a4 a9 bc b0 5a 99 bd e1 db 5e 3d 87 93 32 bd
       -0.02070811 -0.074880004 0.05440891 -0.043597724
000210 a5 86 c7 bb d1 8e 40 bd 3c cf 84 3d a4 ed 88 bc
       -0.006089049 -0.0470112 0.06484839 -0.016714878
000220 1f ef 4a bd d8 e3 df 3b fe 24 ec 3c 07 82 96 bd
       -0.04954445 0.006832581 0.028826233 -0.073490195
000230 eb c2 1c 3d a3 12 dc 3c 45 48 49 bd 4d 82 81 bd
       0.038271826 0.026864355 -0.049141187 -0.06323681
000240 e3 8f 36 3d 64 08 b4 bd 48 c6 ec 3c db 80 90 bc
       0.044570815 -0.08790663 0.028903142 -0.017639568
000250 25 e7 02 3d 40 98 26 3d d5 d9 de 3c cc cb 65 bd
       0.031958718 0.04067254 0.02720348 -0.05610256
000260 b7 b4 32 bc 39 f3 29 3d 96 b5 99 3d 90 9f 30 bd
       -0.010907344 0.04149172 0.07505338 -0.04312092
000270 56 a7 a7 3b c6 96 91 bc f5 40 6a bb 17 4b 1a 3d
       0.0051163835 -0.01777209 -0.0035744284 0.037669268
000280 c5 f7 c9 3b a1 1b 47 bd d5 ef 20 bd cc 4b 64 3d
       0.0061635696 -0.048610333 -0.03929122 0.055736348
000290 30 24 be 3d 22 8a b6 bd f1 02 8c 3d b0 98 f9 3d
       0.09284246 -0.089130655 0.068364985 0.12187326
0002a0 ba 6a 8a bc 74 2f f1 3c 62 26 24 3c 81 da 56 bc
       -0.016896594 0.029441573 0.010018917 -0.013113619
0002b0 d7 e0 00 3c 25 d5 26 bd 9a d2 d4 3c 7b f4 ab bc
       0.007866106 -0.040730614 0.025979329 -0.0209906
0002c0 65 76 d7 bc 85 e3 0a 3c a5 53 01 3d d2 2d a1 3c
       -0.026301572 0.008477096 0.03157391 0.01967517
0002d0 79 d6 07 bd 31 ee 4c bd b1 1b 71 bd da 4f a3 3c
       -0.03316352 -0.050031845 -0.0588643 0.019935537
0002e0 d7 eb 12 3c fd 03 09 bd 73 af 29 bb 83 25 8a bb
       0.008967361 -0.03345107 -0.002589193 -0.0042158975
0002f0 6c ae d2 bc 77 a2 d2 bc de 7c b1 b9 1a e5 6f bd
       -0.025717936 -0.025712235 -0.00033853104 -0.058568098
000300 16 3c 56 3b b8 90 14 bd 51 09 0d bc 82 82 57 3b
       0.0032689623 -0.036270827 -0.008608178 0.0032884185
000310 7c 8c 60 3c 8d ae 0e 3d 49 4d 7f bd 8a 07 8a bd
       0.013705369 0.034834433 -0.062329564 -0.06739719
000320 13 07 82 3c dd 02 86 3c 51 42 65 bd d7 bf 49 bd
       0.015872514 0.016358787 -0.055971447 -0.04925522
000330 68 8d 54 3d 68 19 24 bd 0c ae 4d 3d c8 17 47 3d
       0.051892668 -0.04006329 0.050214812 0.048606664
000340 be 0c cb 3c b3 66 b9 bc 48 b5 53 3d 2f 6c bd 3d
       0.02478635 -0.022631979 0.051686555 0.0924915
000350 b7 89 b9 3c c6 46 c8 3d bc ed d4 bc 4f 8a 35 3d
       0.022648675 0.09779124 -0.025992267 0.044321354
000360 b2 44 55 bd fa 6f 3b 3b 40 7c 7e bc 56 81 dd bd
       -0.052067466 0.0028600679 -0.015532553 -0.108156845
000370 39 a5 c3 bd b8 15 0b 3e d9 0e 14 bb f8 91 ae bc
       -0.09552998 0.13582504 -0.0022591858 -0.021309838
000380 b5 5c 57 bd 5e 3c 09 bd 61 4d 25 bc 75 3e 3c 3b
       -0.052578647 -0.033504836 -0.010089249 0.002872375
000390 52 e9 be 3c 24 66 d0 bb 60 e0 f2 3b b5 43 86 3d
       0.023304615 -0.0063598324 0.0074120015 0.06555883
0003a0 51 99 fc bc 34 7b a2 bd 02 d8 0a 3d e3 93 c5 bd
       -0.030834826 -0.079336554 0.033897407 -0.09647348
0003b0 24 0e 96 3c 3c 10 63 3d 81 0c 45 3c de 05 07 be
       0.01831729 0.055435404 0.012026907 -0.13185832
0003c0 99 b3 e5 3c 5c 54 33 3c 9f 48 95 bc cd 97 6e 3d
       0.02803974 0.010945406 -0.018223105 0.058250237
0003d0 8e 1b a8 3b a8 2a fb bc a5 86 12 3d e6 5a 32 bc
       0.005130238 -0.030659989 0.03577294 -0.01088593
0003e0 69 fa 47 bd 18 f3 5b bc 86 c1 94 3d a7 25 79 bd
       -0.048822794 -0.013424657 0.07263474 -0.060826924
0003f0 99 01 9a 3d 22 d0 e5 bb 50 c4 0a bd e1 cb 4a 3d
       0.07519836 -0.0070133368 -0.033878624 0.04951084

linear1.bias f4 [256]
000000 7e 4f 43 bf 1d 03 c4 bd 0b 6f bc 3d 7a 43 3e bf
       -0.7629317 -0.09570906 0.09200867 -0.7432171
000010 3c 64 e0 3d 70 db 62 bf 06 3a 64 3f f9 43 a1 3e
       0.10956618 -0.88616085 0.89151037 0.31497172
000020 08 b2 91 3e e5 a6 6a 3f f5 35 40 bf e8 ec dd be
       0.2845614 0.9166091 -0.7508233 -0.43344808
000030 e6 5c 46 be 4a a3 2e bf 2f 46 a4 3e 1a 99 21 3f
       -0.19371375 -0.6821791 0.32084796 0.6312424
000040 94 71 99 be fe 0c ea bd a1 3f 9b be d3 61 2b 3f
       -0.29969466 -0.11428259 -0.30321983 0.6694614
000050 54 c4 ef be 64 97 c1 3e 2e 8c db 3e 91 e3 1a 3f
       -0.46829474 0.37810814 0.42880386 0.6050349
000060 e3 da 04 bf 05 ad f3 be 50 05 79 3f 23 d9 60 be
       -0.51896495 -0.4759294 0.9727373 -0.21957831
000070 a5 b2 c8 3e 17 3e 35 be 43 9c 89 3d 6e de 4f bf
       0.39198795 -0.17699467 0.06719258 -0.81198776
000080 7a 3e 72 be b4 92 f7 3c 26 8b 04 bf 77 53 78 3f
       -0.23656645 0.03022132 -0.51774824 0.9700236
000090 75 4b ac be 9b 9f cd be ec 66 3c 3e 4c 75 8a 3e
       -0.3365132 -0.40160832 0.18398637 0.27042615
0000a0 63 6a e2 3e f4 62 9e be a5 ce f4 3e 46 55 06 3e
       0.44221792 -0.3093487 0.47813907 0.13118467
0000b0 55 13 9b bc 87 fb cf be f0 ec 11 bf e7 4a 21 be
       -0.018930117 -0.40621588 -0.5700216 -0.15751229
0000c0 23 92 79 3e 39 14 11 bf ba c4 b4 be 5e 1a 57 3e
       0.24372153 -0.5667148 -0.3530634 0.21006152
0000d0 47 d5 db 3d 54 af 10 3d 1e c9 b1 be 28 25 46 3f
       0.10734039 0.035323456 -0.34723753 0.77400446
0000e0 5b 13 3d 3e 1c 76 2f bf 4e 8d 7d be 29 bc 50 3e
       0.18464415 -0.68539596 -0.24760935 0.20384277
0000f0 d6 b0 1e bf 2b 36 21 3f 1e 97 3a be c5 63 0c bf
       -0.6198858 0.6297328 -0.18221709 -0.54839736
000100 7a 78 81 bd ee e1 bb 3e 66 08 de 3e ef 5e de 3e
       -0.06321807 0.36695808 0.43365782 0.43431804
000110 cb b9 73 3e 0f 7d 26 3f fd a8 c8 be 71 ba ac bd
       0.23801343 0.65034574 -0.39191428 -0.084339984
000120 96 74 69 bf fd 8f 21 3e 27 ec 6d be ec 7c 82 be
       -0.9119352 0.15777583 -0.23234616 -0.25485933
000130 59 da 84 be e9 b3 05 bc f3 ba 3f 3f 54 6e 20 3e
       -0.25947836 -0.00816057 0.74894637 0.15667087
000140 09 71 9c 3e 14 85 27 3e c0 57 12 3f 65 84 08 bf
       0.3055499 0.16359359 0.57165146 -0.5332702
000150 ce f3 44 bf 97 16 88 bf 4e 7f 0a 3f d4 3b 72 3e
       -0.76934516 -1.0631894 0.541005 0.23655635
000160 bf ff 40 bf 1f aa 83 3f 0e 91 8d be c0 4d 2e be
       -0.7539024 1.0286292 -0.2764973 -0.17021847
000170 da 12 38 be 46 bf 18 3f 23 3c 23 bf b6 14 2a bf
       -0.17975941 0.5966686 -0.63763636 -0.6643785
000180 e0 eb 5c bf 9d fc 3a 3f b9 94 43 3d 42 4a 3e 3f
       -0.86297417 0.7304171 0.047749255 0.7433206
000190 de ab 8d be 97 f4 9e be 29 b0 62 bf f8 98 40 bf
       -0.27670187 -0.31045982 -0.8855005 -0.7523341
0001a0 be ef 05 be cd 8c 92 bd 89 a3 70 3f 33 00 f9 be
       -0.13079736 -0.07155762 0.93999535 -0.48632964
0001b0 98 d2 cd bd 27 c0 f9 3e f9 6f 1d 3e b6 9d 0d bf
       -0.10049933 0.48779413 0.15374745 -0.5531877
0001c0 55 77 2b 3f 36 b6 3d bd 09 01 3b bf 93 51 d5 3e
       0.6697896 -0.046316348 -0.73048455 0.416638
0001d0 96 99 e0 be e5 fa a0 be f7 01 e9 be 32 37 43 3f
       -0.43867177 -0.31441417 -0.45509312 0.76256096
0001e0 bd da bb be 76 a5 1c 3f b7 a4 33 3f 94 c8 47 3f
       -0.36690322 0.61189973 0.7017321 0.7804043
0001f0 a9 e0 e0 be 10 f0 f1 3d ee 60 41 3f 56 43 81 be
       -0.43921402 0.118133664 0.7553853 -0.25246686
000200 42 db 83 be d4 7a 03 bf 10 42 05 3e 9e ae bf bd
       -0.25753218 -0.51359296 0.13013482 -0.093594775
000210 50 ee 0e bf 83 4e dd 3e b7 9b 3c 3d 60 bb 40 bf
       -0.55832386 0.43223962 0.04604694 -0.7528591
000220 6b 3d d2 be 24 22 63 3f 50 81 81 3e 0f fa cd be
       -0.41062483 0.8872397 0.2529397 -0.40229842
000230 9d 39 b9 be 4c 09 1e 3e 7c 52 89 3e f0 99 4a be
       -0.36176768 0.15433234 0.26820743 -0.19785285
000240 db 21 da 3e 0f 00 ea bd 80 f0 a0 3e 84 04 a6 3e
       0.42603955 -0.114257924 0.31433487 0.3242532
000250 af 51 b3 3d e3 c4 8e 3d 0d 45 30 3f 7a b1 79 3d
       0.08755814 0.06971147 0.68855363 0.06096027
000260 74 65 2f 3e 7f fb e6 3d 3b 81 2c be 48 cb f0 3e
       0.17128545 0.11278438 -0.16846173 0.4703009
000270 fc 63 73 bf bd 6d aa be 6b ba e5 be 4a 8f 0c 3d
       -0.9507444 -0.3328685 -0.44868788 0.03431634
000280 c7 7e a3 3e 79 1f c1 3e 70 45 53 3e 47 b1 e5 3e
       0.3193266 0.37719324 0.20631957 0.44861814
000290 68 fd a5 3e 80 3a 89 3e d8 73 fd 3e 74 f5 9e 3e
       0.32419896 0.26802444 0.49502444 0.3104664
0002a0 1e dc b2 3c 22 c3 b3 3d 54 c7 ee 3d 91 d7 38 bf
       0.021833476 0.08777453 0.116591126 -0.7220393
0002b0 23 c6 8c 3e c8 8a 23 3f 9c 3a be 3e 87 d5 ba 3e
       0.27494916 0.6388364 0.3715409 0.36491033
0002c0 9a 4b b0 3e 40 08 18 bf 30 a5 28 bf f4 d2 3f bd
       0.3443268 -0.5938759 -0.65877056 -0.04683204
0002d0 b4 6d ef 3d 0a 10 00 be 2b ca bc bd 44 fa 43 bf
       0.11690846 -0.12506118 -0.09218248 -0.7655375
0002e0 fb 81 2b bf a4 82 12 3f a7 83 de 3e bf b8 81 be
       -0.6699521 0.5723059 0.43459818 -0.25336263
0002f0 00 94 ee be 7b 4b 43 be ef 6a 3c 3f c3 9f 57 3f
       -0.4659729 -0.19071762 0.7360067 0.8422815
000300 3a 5d dc 3e e2 24 da be a6 34 19 be e0 4f de 3d
       0.43039876 -0.42606264 -0.1496149 0.10855079
000310 d7 17 02 bf 4e 1f 5c 3e 47 39 f4 be fb 13 1a bf
       -0.50817627 0.21496317 -0.4769995 -0.6018674
000320 12 db fc 3b 8f c7 4d 3e 17 38 2c bf 20 84 cb be
       0.007716545 0.20095657 -0.67273086 -0.3974924
000330 b7 04 16 bf 30 92 0d 3f 8d 66 ec be e4 b2 f8 bd
       -0.58600944 0.5530119 -0.4617199 -0.12143496
000340 1f 7a d3 3e 05 ff bb be c7 1c 15 bf 0b 7c 31 bc
       0.41304109 -0.36718002 -0.58247036 -0.010832797
000350 b1 bb 2c 3f af 32 17 3f 49 c1 01 bf 7a 7e 3e bf
       0.67473894 0.5906171 -0.50685555 -0.7441174
000360 72 e3 18 be 13 4e c8 be 7f ae 87 be 17 22 17 3e
       -0.14930514 -0.39122066 -0.26500317 0.14759098
000370 d3 1b 28 3f 89 14 0d 3e 78 03 18 bf 85 f2 26 3f
       0.65667456 0.13777365 -0.5938029 0.65213805
000380 1e 2c a3 3e 39 99 4c bf 2a f0 13 bf b7 ba 12 3f
       0.31869596 -0.799213 -0.57788336 0.57316154
000390 90 cf e9 be 07 67 e1 3e 79 e7 0c 3e e8 fb 18 bf
       -0.4566617 0.44023916 0.13760175 -0.5975938
0003a0 a8 de 8e be 0e 01 3f be 42 c2 e6 3d 78 f8 06 3f
       -0.27904248 -0.18652746 0.112675205 0.52722883
0003b0 b4 54 04 bf 0b 86 e5 be a5 08 22 bf 0a ab 81 3f
       -0.51691747 -0.4482883 -0.6329444 1.0130322
0003c0 2e b0 3d 3f 17 48 4a 3d 07 42 96 3e d9 35 24 be
       0.74096954 0.049385156 0.2934725 -0.16036166
0003d0 7f 04 30 bf 45 61 b9 3e ae 8c 27 bf dd aa 4e bf
       -0.6875686 0.36207023 -0.65449035 -0.80729467
0003e0 be a5 b5 3d 17 06 97 be 5b cd 65 bf 0d ef d4 be
       0.088695034 -0.29496834 -0.8976647 -0.4158863
0003f0 c4 52 bf be 80 c0 fd 3e ff bf bf be 46 bb 91 bd
       -0.37367833 0.49560928 -0.3745117 -0.07115798

linear2.weight f4 [5, 256]
000000 ea eb ae bd 61 c7 86 3d 91 cb 23 3d 44 9f 0b bd
       -0.08541091 0.06580997 0.039989058 -0.034087434
000010 77 93 df 3c ff de 7b bd dd 06 ae 3d ec 7a 9c 3d
       0.027291996 -0.061491963 0.08497403 0.07640633
000020 3d 1b 27 3d 36 bd b0 3d b7 91 7f bd 37 1c 80 bd
       0.04079746 0.08629839 -0.062394824 -0.062553816
000030 c6 b0 b8 3a 76 f7 5b bd 1f 59 ca 3d 5e 9b 1a 3d
       0.0014090769 -0.053702794 0.0988028 0.037745826
000040 18 e7 44 3d 7f 6f 79 bd db de f5 3c 6a 7a 15 bd
       0.04807195 -0.060897347 0.030013492 -0.036493696
000050 dd 1a 79 bd 91 de 50 3d 56 44 1a 38 95 44 6f 3d
       -0.060816634 0.050993506 3.6780104e-05 0.058415014
000060 5a 36 86 bb 2d b3 31 bd aa 86 c9 3c d5 a7 4f 3d
       -0.0040958347 -0.043383766 0.024600346 0.050697166
000070 a9 c4 63 3d 6f 1d 06 bd 4a e4 48 bd 20 56 30 bd
       0.05560747 -0.032742914 -0.04904584 -0.043050885
000080 14 f4 7a bc e6 96 46 bd 54 bf f1 bc fb e9 39 bd
       -0.015316982 -0.04848375 -0.029510178 -0.045389157
000090 48 8d 8f 3c bf b2 56 bd 77 c0 f3 bc 0c ff 52 3d
       0.017523423 -0.05241656 -0.02975486 0.051512763
0000a0 78 ad 15 3d af e3 13 bd 91 b0 30 3d 24 3a 0e 3c
       0.036542386 -0.036105808 0.043137137 0.008680854
0000b0 1a 24 36 bd 07 08 48 3d 48 82 36 bd 72 49 15 bd
       -0.044468023 0.04883578 -0.04455784 -0.036446996
0000c0 1d a0 de bc dd 43 48 bd b9 c4 ae bd 13 30 58 3c
       -0.027175957 -0.048892844 -0.085336156 0.013195056
0000d0 ce 7d 1a bc bc 94 71 bd 15 6a 95 bd ae 2d 1f 3d
       -0.009429408 -0.058979735 -0.07295624 0.038861923
0000e0 1b 10 21 bd 3b 6b 3f bd d4 26 ae 3c 23 33 78 bc
       -0.039322 -0.046733122 0.021258749 -0.015148911
0000f0 d2 41 8c bd a7 4e bb 3d 71 43 d9 bd d4 af 3e bd
       -0.06848492 0.09145861 -0.106085666 -0.0465544
000100 c3 e3 42 bd 9d 34 68 3d 2d e6 88 3d 99 6d 5c bd
       -0.04758049 0.0566908 0.066845275 -0.053815458
000110 4c b8 ae bd 47 f8 b4 bd 0f cd 15 ba 6a 65 9e bd
       -0.085312456 -0.08836418 -0.0005714455 -0.07734187
000120 63 02 94 bd 5b 0e 29 3d 14 a8 31 3d 15 6f 8a bd
       -0.07227018 0.041273456 0.043373182 -0.067594685
000130 07 ab b9 3c dc 34 76 3d 14 f0 6d 3d 8c c7 83 3c
       0.02266456 0.060109004 0.058090284 0.016086362
000140 37 34 f0 3a 61 4b b0 bc 77 e4 f2 39 f7 cb 75 bd
       0.0018326108 -0.021520318 0.00046328056 -0.06000897
000150 73 76 79 bd 11 0e 67 bd 7d 74 d5 3c 98 b7 20 bc
       -0.060903978 -0.0564099 0.026056523 -0.009809397
000160 1f d3 a6 bd 2e 04 26 bc 90 ad d6 bc ef ed 82 bd
       -0.08145737 -0.010132832 -0.026205808 -0.063930385
000170 d8 2c 64 bd 8e f1 dc 3c 23 e4 77 bc 97 c7 55 bd
       -0.05570683 0.026970651 -0.015130076 -0.052192297
000180 c6 a8 24 bd 85 f2 a5 3d 69 2f 86 bd 66 d5 d7 3d
       -0.040200017 0.081028976 -0.065520115 0.105387494
000190 49 1a 51 bd 77 e1 00 3d bb ff 23 bd 5b 95 9a bd
       -0.051050458 0.03146502 -0.040038805 -0.075480185
0001a0 3e 5f 8a 3c 6b b0 18 bd 1e 93 6d 3d 84 62 26 bd
       0.016891118 -0.03727762 0.05800163 -0.040621296
0001b0 5a 8a 6e bd ce 4a 77 3d b8 ff 8f 3c c4 06 b3 bc
       -0.05823741 0.060374074 0.01757799 -0.021853812
0001c0 35 b8 cf 3d a2 41 8a bd 8f 28 be bd 33 46 64 3d
       0.101425566 -0.067508 -0.0928508 0.05573101
0001d0 a9 e9 1c bd 4a ad 7a bc a5 ca af 3c 27 85 ed 3d
       -0.038308773 -0.015300104 0.021458933 0.115976624
0001e0 01 21 14 bd d3 0c ad 3c 24 51 75 3d 07 28 96 3d
       -0.036164287 0.02112428 0.059891835 0.07331853
0001f0 c5 92 ac bd cc 63 e4 3c 4c ea 49 3d df d8 ef bb
       -0.084264316 0.027879618 0.04929571 -0.007319554
000200 37 00 4d bd fd 4e 88 3d c9 4a 6c 3c 5a 18 55 3c
       -0.050049033 0.06655691 0.014422127 0.013006294
000210 eb bc b6 bd 01 19 01 bc e9 51 a6 bd ee 9b e4 bd
       -0.08922752 -0.007879497 -0.08121092 -0.11162554
000220 e9 86 56 bd c5 ed c1 3c 00 40 18 bd d3 7c 75 bd
       -0.052374754 0.023672948 -0.03717041 -0.059933495
000230 e7 9c 55 bd 98 d3 56 bd e8 f2 c0 3c 8d 50 42 bd
       -0.052151587 -0.052447885 0.023553327 -0.0474401
000240 dd 7e aa 3d fb bd bb bb 40 12 69 3d ff 02 8b bd
       0.083249785 -0.0057294345 0.05690217 -0.06787681
000250 77 62 81 bd b4 a2 40 bd bf 26 10 bd cd 5d 25 bd
       -0.06317609 -0.047030166 -0.0351932 -0.04037266
000260 75 83 12 bc 91 d2 ce 3c 51 b3 43 3d 94 0a a5 3d
       -0.008942475 0.02524689 0.04777843 0.08058658
000270 9e 00 a7 bd 35 c3 65 bd 97 60 87 3c 68 c2 ff 3c
       -0.081544146 -0.056094367 0.01652555 0.03122063
000280 2e d3 8d bd a9 a4 6c 3d a5 16 47 3d cf 18 5e 3d
       -0.06925045 0.05777422 0.04860558 0.054222878
000290 25 b2 a5 bc c1 ac 8d bd 81 27 5a 3d a1 37 84 3d
       -0.020226547 -0.06917716 0.05326033 0.06455923
0002a0 c0 cf dc 3c 98 41 2a bd 65 04 2f 3d cf 6b ad bc
       0.026954532 -0.04156646 0.0427288 -0.021169571
0002b0 5f fe 0d 3d 2a e4 42 3d 33 15 4e 3d ba a2 a1 3d
       0.034666415 0.047580875 0.050313186 0.07892366
0002c0 a3 6d bc bc 02 7e 85 bd f6 f0 65 bb e2 89 6f bd
       -0.023001498 -0.06518175 -0.003508625 -0.058481105
0002d0 9a 99 cf 3c 11 1a f3 3c 93 38 5c bd d7 db 97 bd
       0.025341798 0.029675515 -0.05376489 -0.07414978
0002e0 05 f6 42 bd 66 1e 4f bb 44 98 4b 3d 09 fe 96 bc
       -0.047597904 -0.0031603812 0.04970576 -0.01843168
0002f0 47 3b 82 bd 1e e8 36 bd 3d 08 c9 3d 4a 84 09 3d
       -0.063589625 -0.044654958 0.098160245 0.033573426
000300 b8 ad a1 3d 07 c1 ef 3c 27 0f b1 3d c8 78 cf 3c
       0.07894462 0.029266847 0.08645468 0.025326148
000310 49 02 ce bd 17 dd 04 3d be d7 17 bd c4 aa 93 bc
       -0.100590296 0.03243741 -0.037070982 -0.018025763
000320 e9 1e 79 bd a3 07 0b 3d 0c a8 72 bd b5 93 a7 3d
       -0.060820494 0.03394283 -0.059242293 0.0818247
000330 dd b0 92 bb 4e cd 34 3d 4c 84 95 3c ca b8 fc bb
       -0.00447665 0.044141106 0.01825156 -0.0077124583
000340 8c 7b 79 bd 70 75 8a 3b 29 85 c5 bd 3d f0 c0 3d
       -0.06090884 0.0042254254 -0.09644539 0.09420822
000350 85 a1 b5 3d 37 69 ec bb 8f 80 89 bd 17 47 97 bd
       0.08868698 -0.007214691 -0.06713974 -0.07386606
000360 99 42 66 3c 48 38 cc 3c be e3 40 3d 56 66 23 bc
       0.014053964 0.02492918 0.047092192 -0.009973129
000370 1e ac a7 3d 94 3e 29 3d e4 65 a1 bd e7 57 4a 3d
       0.081871256 0.041319445 -0.07880762 0.049400236
000380 13 0e 37 bd 9a 62 a4 bd 81 97 02 bd de 2b 17 bd
       -0.044691157 -0.08026619 -0.031882767 -0.03690707
000390 ae cd 85 bc 57 25 f9 3d c9 aa 6f 3d 01 0c 6c bd
       -0.016333427 0.12165325 0.058512483 -0.057628635
0003a0 46 29 a3 3c 63 2c 10 bd 1a 12 7d bd 7a 0b c6 3c
       0.019917142 -0.03519858 -0.06178484 0.024175394
0003b0 0f b4 91 bd 31 3d 15 bd 2c 76 34 bd 1e a8 93 3d
       -0.071144216 -0.03643531 -0.04405801 0.072098
0003c0 c4 c5 a3 3c 09 fa f8 3c 7a 9a e7 3d dd cd 50 bd
       0.019991763 0.030392664 0.11308761 -0.050977577
0003d0 3d 0a 0d bd b6 e9 94 3d ac ab 69 bd 2f 1e 52 bd
       -0.034433592 0.07271139 -0.057048485 -0.051298317
0003e0 8d ef 31 3d 82 d6 2d bd 6f 63 c4 bd 53 99 8d 3d
       0.043441344 -0.0424409 -0.09589278 0.0691401
0003f0 3a f3 38 bb 78 80 e2 3b 5f be 6e bd 22 8e 5d 3d
       -0.0028221146 0.0069122873 -0.05828702 0.054090627

linear2.bias f4 [5]
000000 ed 9c 9b be 85 47 f6 bd 26 0e d1 3e 84 9b 77 bf
       -0.30393162 -0.1202536 0.40831107 -0.96721673
000010 a7 ce 38 3f
       0.72190326
