2nd_model/combineCLH.pt (torch_old, 531277 bytes, 4 tensors)

linear1.weight f4 [256, 512]
00000000: b65d 93bc c0fc 6ebe 23b0 0a3d deba f0ba
00000010: 0f56 55bd 235f 953c 0111 d93d 1784 59bd
00000020: 90f5 143d 5c49 f3bc fd45 a33c 56e6 7dbb
00000030: 5b6d c5bc 4cdd d7bc 569d c93d 5d9a 84bd
00000040: 71b3 a1bd be55 833d c4c6 473d a9b3 38bd
00000050: d42c 243b edd9 c33b df13 c83b 1df2 07be
00000060: 0939 9d3d c99e f1bd 632c 763c 845d 0c3d
00000070: 656f 343d dadf 4dbc ddaa 133e 6e0a b5bd
00000080: a716 10bd ac05 bfbd 5eb9 dd3d b90b a03d
00000090: 10d9 3f3e 339a bdbd 3852 9f3d ab6d 193d
000000a0: 3594 233c d522 dd3d 6999 7b3c 5ab1 fcbc
000000b0: cde6 783d 050b b73d 838e 603d 4023 5a3d
000000c0: ea87 e63c 5436 7bbd 387a 01be 83bb 253e
000000d0: 5351 cdbd 342a c63d 6ab1 973d e719 a03d
000000e0: 1c5b e73c 823b 5fbd adaa 3c3d de2e e93c
000000f0: 0fc3 903b aa99 bcbc bb22 19be e134 46bd
00000100: c5d3 403c 303a b5bb 7a89 933b bf33 13be
00000110: 69c0 9e3d 649f 693d 4174 323d adc4 d3bd
00000120: 161c cfbd 3dff b9bd e5a8 cdbd e34d d13d
00000130: 7837 c83c ec3c 0ebe 16e9 a13d b15b 143e
00000140: de5a adbd 0a54 9f3d fa1c 4bbd a09a 143c
00000150: fd0a ddbd e3e2 e5bc 77e7 febd 6cd2 b03d
00000160: aacf a23c ebb3 f2bd 5672 cd3d 8cce a939
00000170: 5a39 d63c 2011 9cbd 2aa0 a3bd e802 3e3d
00000180: 0c14 173e db7b 203d 4d9c 2f3d c226 40bd
00000190: ad26 e93c b143 de3c c69b 7d3d 3812 013e
000001a0: 9bff 1a3e 32e6 75bd 830c 083e b30d b4bd
000001b0: 06a8 d7bc 0ab5 8f3d 720f 993d c1c4 6d3d
000001c0: 9bee ba3d a715 e5bd d724 6cbc 8c3d 973c
000001d0: f69c cc3d b549 c73c 4b2b 40bd 001f 523d
000001e0: 35df ddbc 4d20 a23d 24ec b93a 9934 7fbd
000001f0: dfba 5f3d 904d 243d 4bea 24bc 8cfa ad3c
00000200: e406 013c 9139 40bc f401 dfbd 0c95 c3bd
00000210: 917d 513d 1cbe a9bd 013a 68bd 28db 603d
00000220: 12e1 aebd 9f40 9f3d eb43 de3b f276 953b
00000230: 20e4 0b3e 5ef1 87bb d5c1 803d c54a 2cbe
00000240: 232b 65bd 9a90 bf3d e956 6c3c 1b71 a93d
00000250: 85cf 63bd ef8a 8fbd 6bcb 00bc 1062 6bbc
00000260: 4bdd 14bd 313f 30be d24a 31bd b8a5 e3bd
00000270: c881 bb3d d7f4 e03b 921b 8bbd 249b b53b
00000280: a544 a63c d11d e13d 746f b43d 5d0c c1bd
00000290: 715f 6fbd 626c 3d3e ba68 01bb 8a0d 37be
000002a0: 1a0f 6c3d af4c 363d 2805 083d 8212 663d
000002b0: 08b8 283d 760b a4bd 29c7 be3b f9f1 8fbd
000002c0: c8ca b83c 98cb dbbc 6270 ca3c 1920 8bbd
000002d0: c038 ec3a b9bc 733d 0a17 7dbd a505 c8bd
000002e0: 0545 af3d 5ee2 e1bd e379 b4bb e873 a13d
000002f0: f3e5 0b3d 3aff 003d 3ebc 83bd aca4 ad3d
00000300: 2e4a 01be f5cc 94bb 9dad f9bd 5355 c9bd
00000310: f299 b93d a089 893d b727 373c 4e34 d1bd
00000320: 9948 74bd a07d 2e3d 6036 09bc 9dc5 113d
00000330: fe94 87bc 6c99 1cbb e3ad bf3d df09 5e3d
00000340: 648f 07be 2807 04bd d7f2 fc3d 77c6 a03d
00000350: c08a f1bd 2622 913c f16f 693d f30f dabb
00000360: 2d3e d7bc 1bd6 a9bc 739e fcbd 7c6c a93d
00000370: bfe8 a9bc 163c 113c f715 123c 8eee b3bd
00000380: 09c1 a03d 8c80 5c3d 0c9b 923c 4339 e7bd
00000390: ccd9 3f3c e721 1a3d 6328 8b3c ec12 a23c
000003a0: 86f6 57bd 4a52 10bd b2e4 24be bca3 14bd
000003b0: bf5a 013d 670b 48be 33e7 423e ae4e ad3d
000003c0: c488 da3d c6f4 fcbc 3542 a53a b471 0abd
000003d0: 8514 83bd 599a 743d 5242 a83d 5420 3a3d
000003e0: 2b8a 123d dc19 c23c c8c3 1bbd c967 a9bd
000003f0: 693a 853d c2d7 1a3d e2d4 a53b 53b6 e73c
-0.01798902 -0.23338604 0.033859383 -0.0018366238 -0.052084025 0.018233841 0.10598946 -0.053104486
0.036367 -0.029698066 0.019930834 -0.0038742027 -0.024099996 -0.02635064 0.098444626 -0.06474755
-0.07895554 0.064128384 0.048773542 -0.045093212 0.0025051134 0.0059769065 0.0061058844 -0.13275953
0.07676894 -0.11797864 0.015025231 0.03426887 0.044051547 -0.012565577 0.14420648 -0.0883988
-0.035177853 -0.09327254 0.108263716 0.07814736 0.18735147 -0.09257927 0.07779354 0.037458103
0.009984066 0.10797659 0.0153564 -0.030846287 0.060766984 0.08937649 0.05482341 0.053256273
0.02814098 -0.06133111 -0.12644279 0.16184811 -0.10025277 0.09676018 0.07406886 0.078174405
0.028241687 -0.05450011 0.046061207 0.02846473 0.004417784 -0.023022491 -0.14954655 -0.048390273
0.01176924 -0.005530618 0.0045024725 -0.14375208 0.07751543 0.057036772 0.0435679 -0.10340247
-0.10112779 -0.09081886 -0.1004198 0.10219934 0.024440512 -0.13890427 0.07905786 0.14488102
-0.08464597 0.07779701 -0.04958818 0.009070069 -0.107931115 -0.02806229 -0.12446492 0.08633885
0.019874413 -0.11850723 0.100315735 0.0003238808 0.026150394 -0.07620454 -0.07989533 0.04638949
0.14753741 0.039180618 0.04287367 -0.046911962 0.028460825 0.027131887 0.061916135 0.12604606
0.15136568 -0.060033984 0.13286023 -0.087916754 -0.026325237 0.07016952 0.07473649 0.058048967
0.09127542 -0.111857705 -0.01441308 0.018461965 0.099908754 0.024327138 -0.046916287 0.051299095
-0.027083972 0.07916317 0.0014184755 -0.06230602 0.054621574 0.040113032 -0.010065625 0.021237634
0.007875178 -0.011732475 -0.108890444 -0.09549913 0.05114514 -0.082882136 -0.05669594 0.054896504
-0.085390225 0.07775997 0.006782999 0.0045612985 0.13661242 -0.0041486463 0.062869705 -0.16825397
-0.05594934 0.093537524 0.014425018 0.08273526 -0.055617828 -0.07008921 -0.007860999 -0.014366642
-0.036343854 -0.17211606 -0.043284245 -0.11115593 0.09155613 0.0068651247 -0.06792368 0.005542176
0.020296404 0.10992015 0.088103205 -0.09426186 -0.05844063 0.18498376 -0.001974626 -0.17876258
0.05763159 0.044506725 0.033208042 0.056169994 0.04119113 -0.080099985 0.0058220816 -0.070285745
0.022557631 -0.02683048 0.024711791 -0.067932315 0.0018022284 0.05950615 -0.06178955 -0.097667016
0.08558086 -0.11029504 -0.005507694 0.078834355 0.034154844 0.031493403 -0.06432389 0.08478674
-0.12625954 -0.0045410343 -0.12191317 -0.098307274 0.09062566 0.06715703 0.011178902 -0.102150545
-0.059639547 0.042600274 -0.00837478 0.03558885 -0.016550537 -0.0023895158 0.09359338 0.054208633
-0.13238293 -0.032233387 0.123510055 0.07850354 -0.117940426 0.017716479 0.05699152 -0.0066547333
-0.026274765 -0.020731976 -0.12334909 0.08272645 -0.020740865 0.008864423 0.00891637 -0.08785735
0.078493185 0.05383353 0.017896198 -0.11290219 0.011709642 0.037629988 0.016987031 0.019784413
-0.052725337 -0.035234727 -0.16102865 -0.03628896 0.031580683 -0.195356 0.19033508 0.084622726
0.10670617 -0.030878436 0.0012608232 -0.033799842 -0.06400398 0.05971751 0.082157746 0.045440987
0.0357763 0.023693971 -0.03802851 -0.082717486 0.065052815 0.03780342 0.005060778 0.028285181

linear1.bias f4 [256]
00000000: 90d6 833f 3d90 abbf bb9c a13e b85c e93e
00000010: c148 6ac0 4856 7dbd 6954 74bf 43e6 363e
00000020: 5a16 123e 36a5 b13d 849d 2abe 3c3d c33f
00000030: 42c6 d7be 67d8 183f d34e 8940 e24a 54be
00000040: 7aa1 16c0 8309 fb3d 17b0 77bd 2384 03bf
00000050: dcb6 123f 08bf d03e b157 8dbf ab94 9a3c
00000060: 58a7 bebe 6a92 81be a4d1 ac3f 7e73 8c3e
00000070: ccdf bcbd 3829 9f3e 27fb b8be cc36 163f
00000080: f49e be3e 8c94 903e 5fa3 483f 5337 b33e
00000090: bb53 0b40 183c de3e 9122 a43f b38a 54bf
000000a0: 6d87 ed3f 0d76 94bf 2f3a 3c3f 4616 56c0
000000b0: 26b0 0dbf 5aa5 f43f 2375 8dbb 93d3 08c0
000000c0: efa2 d7be 2f9d 8f3e ff0e a13f c625 cfbf
000000d0: c9b0 d1bf ab7c 57bf 12fd 293f 2de7 0e3f
000000e0: d2d0 513e 2ea7 103f 4848 7d3e 42f1 313e
000000f0: 27f1 37bf b320 4cbf 3fbe e5be db7d b7bf
00000100: 1cc9 203e a41d a8bf 0c4c a03e 09df 35bf
00000110: 2e7b 8f3f f0e0 643f 4adf d63e 5e5e 81bf
00000120: 5cba 0abf ecb3 403d cbc9 9e3f 6a24 1ebf
00000130: da5e 4d3f 7245 0fbf 5b3f 423e 9699 02bf
00000140: 2049 d83e d1af 023f 24e3 fd3e 6309 813f
00000150: 13f3 223f 67b9 923f 3981 af3f 7143 0ebf
00000160: 9ef7 8d40 a4bb ee3e 64e1 013e 6340 1ebf
00000170: 130a 933f 8bdc d8bf 7fd6 36bf 97ff cfbf
00000180: b079 703f 1d65 ca3d 2e34 fe3e 0af3 53be
00000190: 6e0c 7cbf cfb7 783f fd1e 513e 5f92 acbe
000001a0: 6580 66bf dee0 22bf 00bd b33f b437 fc3e
000001b0: 180f 34bf 0739 c43e 0bd5 b5bf 9f3c 0e3f
000001c0: 6a66 ad3f 354c b63f 807f 1dbe 8ed9 9c3e
000001d0: bb5f 733d 7b18 d1be e83f b23e 4de0 e83e
000001e0: e95d 30bf 8de7 35bf 59df 0d3f 5fab a03e
000001f0: 1606 0abf 3ea1 29be d54f c23d 21e3 a33e
00000200: 8510 1bc0 ccfa 5c3f 519a 72bf d44a 83be
00000210: 85cd 283e 6858 573f 3318 e6be 2021 83bf
00000220: d993 8abf 21dd 193e cda2 133f d539 afbf
00000230: 9930 483f 6f21 493f 10a0 4cbe a31c 013f
00000240: 1b4f e33e b01a 223f 1fcc 0c3f 1413 2bbf
00000250: 53b4 c0bf 0c17 033f 4b1d ad3e 6e82 653f
00000260: 585c 97bf ffa6 8f3d 0ad6 8c3f 7a4f 8fbe
00000270: 2894 76bf 3267 0dc0 0e49 3abf 256b 4dbe
00000280: c409 9a3e 727a 30c0 0046 233f cfd8 81bf
00000290: 2aa4 4cbe 5213 5b3e 2de1 2240 7a53 9cbf
000002a0: 92a0 4cbf 0879 223f d939 783e 40d9 9d3f
000002b0: 8217 09bf 6f90 52bf 03e9 aebe f11b 75bf
000002c0: 9832 ff3e 91c1 8abf f198 95bd be88 9d3e
000002d0: dc8f 473f d056 0bbf 4600 343e b131 32bf
000002e0: deff d1be 6bf3 4abe 7f95 c2bd b459 cb3f
000002f0: 7229 ab3f 28cd 8cbf b03c 7fc0 abf3 0640
00000300: 5b97 0dbe d2c4 90bf 5941 cbbe 6e6b ab3e
00000310: f516 bbbe cdbe cac0 1dea 10bf 1b5a cb3e
00000320: 8a45 d0be 520a 843f 7a31 2d3f f910 2f3f
00000330: ccae ddbe 2645 e73e e20f d23f 1620 5abd
00000340: a285 89be 8b5a 923a c80e 53be f82a 6ebf
00000350: 8dd6 313f 0b7f ee3e 8f46 5c3e 403a 403f
00000360: 8934 d1be a3e6 1e3f 17cf 3dbc 1cb0 c1bf
00000370: 3245 9a3f 61d2 813f a988 2c3e 1a16 c83f
00000380: 7aae 53be 11bf 783f ce73 e83e d0e8 e23d
00000390: f210 94be a2bb 0dbf 4328 6ebf 70c0 03bf
000003a0: 456b 79be 3245 713f fca9 bbbd dfd5 be3e
000003b0: 6c40 6d3f 8a35 9e3f 35ee 463f c46b d93f
000003c0: 6537 3b3f 407d 713e 4c3c b73e c964 283f
000003d0: 4f89 69be 786e 08be ed3b cabe 2203 c1bf
000003e0: cee3 8fbe 9cde fd3e 1fde f6be b638 e0be
000003f0: 09d3 64bf c17e 9c3f 706a 93bf bccc 60bf
1.0299854 -1.3403393 0.31564888 0.4557855 -3.6606905 -0.061849862 -0.954413 0.17861275
0.14266339 0.086740896 -0.1666165 1.5253062 -0.42143446 0.59705204 4.290872 -0.2073169
-2.3536057 0.122576736 -0.060470667 -0.513735 0.5731027 0.40770745 -1.1042386 0.018869719
-0.37237048 -0.25307018 1.3501477 0.27431864 -0.09222373 0.31086135 -0.36129114 0.58677363
0.37230647 0.28238332 0.78374285 0.35003147 2.1769855 0.43405223 1.2823049 -0.8302414
1.8556954 -1.1598526 0.7352628 -3.3451095 -0.55346906 1.9112961 -0.0043169423 -2.1379135
-0.42116496 0.2804961 1.2582701 -1.6183403 -1.6382076 -0.84174603 0.6640178 0.55821496
0.20489815 0.56505096 0.24734604 0.17377189 -0.71852344 -0.79737395 -0.4487171 -1.4335283
0.15701717 -1.3134046 0.3130802 -0.7104345 1.1209466 0.8940573 0.4196723 -1.0106924
-0.5419061 0.047046587 1.2405332 -0.61774313 0.80222857 -0.5596534 0.1896948 -0.51015604
0.4224329 0.51049525 0.49587357 1.008099 0.6365215 1.146283 1.3711311 -0.5557166
4.4364767 0.46627533 0.12683636 -0.61816996 1.148745 -1.6942304 -0.71421045 -1.6249875
0.9393568 0.09882567 0.49649185 -0.20698181 -0.98456466 0.9715547 0.20421977 -0.33705422
-0.90039665 -0.6362437 1.4042053 0.49261248 -0.7033553 0.38324758 -1.420564 0.5556125
1.3546879 1.4242007 -0.15380669 0.3063473 0.059417468 -0.4083899 0.34814382 0.45483628
-0.68893296 -0.71056443 0.55418926 0.31380746 -0.53915536 -0.16565415 0.09487883 0.32009223
-2.4228833 0.86320186 -0.9476672 -0.25643027 0.1648465 0.8411927 -0.44940338 -1.0244484
-1.082637 0.1502576 0.5767029 -1.3689524 0.78199154 0.7856664 -0.19982934 0.5043432
0.4439629 0.6332197 0.54998964 -0.66825986 -1.505503 0.5120704 0.3381141 0.89652145
-1.1825056 0.07014274 1.100282 -0.27990323 -0.9631982 -2.2094235 -0.7276772 -0.20060404
0.30085576 -2.7574735 0.63778687 -1.014429 -0.19984499 0.21394089 2.5449936 -1.2212975
-0.7993251 0.6346593 0.24240817 1.2331924 -0.53551495 -0.8225164 -0.3416215 -0.9574576
0.49843287 -1.0840322 -0.07304562 0.30768389 0.77953887 -0.5442934 0.1757823 -0.69607073
-0.41015524 -0.19819419 -0.0950117 1.588675 1.3372023 -1.1000109 -3.988079 2.1086223
-0.13827269 -1.1310065 -0.39698294 0.334804 -0.36540952 -6.335791 -0.5660723 0.39717183
-0.40678054 1.031565 0.6765362 0.68385273 -0.43297422 0.45169944 1.6411097 -0.053253256
-0.26859766 0.00111659 -0.20611107 -0.93034315 0.69468004 0.465813 0.21511291 0.7508888
-0.40860394 0.62070674 -0.011585019 -1.5131869 1.2052367 1.0142328 0.16849007 1.5631745
-0.20672026 0.97166544 0.45400852 0.11079562 -0.28919178 -0.5536443 -0.93030185 -0.5146551
-0.24357326 0.9424621 -0.09163281 0.37272546 0.92676425 1.2360089 0.77707225 1.6986012
0.731314 0.23582935 0.3578819 0.65778786 -0.22806285 -0.1332339 -0.39498845 -1.5079081
-0.2810349 0.495839 -0.4821634 -0.43793267 -0.89384514 1.2226182 -1.1516857 -0.878124

linear2.weight f4 [5, 256]
00000000: 3099 4fbd e775 53bd eda6 133d 7da1 6ebc
00000010: 99c1 25bc d31c 8cba a47e fcb9 4a17 293d
00000020: 5808 b6bd c43d 9a3a 2ca9 2ebc 13b9 c53d
00000030: ef16 c5bc 0709 dc3b 9b0d 0f3e 1eab 48bc
00000040: 2d3c 0c3d e0b3 413c 7475 cb3d 3b97 8dbd
00000050: 14af f4bc b7a8 b4bc 135c 013d 2af2 e33c
00000060: 71ad 523c 2463 6fbc c8c3 6abc e0b9 4e3c
00000070: e6e5 3ebe 0d91 b1bd 3394 ba3d 87fe 10bb
00000080: 21d4 173d b023 623c 4d87 17bb 9684 48bd
00000090: 4e81 5bbd 194b a0bd f058 37bc c107 d8bd
000000a0: 43dd 923d 6834 31bb 8498 5c3c ddc3 c13c
000000b0: d516 a13d d7b9 cdbd 8b3d cb3d 2d9d 52bc
000000c0: ea3a a93c dcde 7d3c c605 79bd 5cad 8e3d
000000d0: 673e b73d 1488 0f3c 3217 9c3c 7c10 3c3c
000000e0: 2972 ab3d 6869 94bc 4825 353d 5ae3 493d
000000f0: 873f 983c e36f d1bd 410b 30bd f211 be3d
00000100: 402f c9bb 1698 103e 36d8 c93b 4fee 84bd
00000110: 672d 3bbc ed53 ebbc 6b65 88bd bff6 96bd
00000120: 63f6 f8bb be4f 8fbd 8068 87b7 143e 923e
00000130: 0aba b83c 383e 79bd 8e92 a03d 1a5d 5b3c
00000140: 56e6 e93a cf39 1fbc aa90 5a3d 0b8d 683d
00000150: 785e 073c aed9 c23d 8aa6 8f3b ec59 66bd
00000160: b051 43bd a385 bd3d 6022 5abd 3ecb 0bbc
00000170: 0c6c 50bd fd7d 503d 7a64 b43d f14c de3d
00000180: 9a1c a73c 0bdd 3dbd 48c1 bb3b 954b 25bd
00000190: 0d42 5cbd 7b7f 9e3b 6d02 92bb 8c8d 15bc
000001a0: 811e d6bd 321e b03b a28d 43bb 8122 0c3d
000001b0: 5117 2f3d 718f 0dbc b586 02bd 6f19 243c
000001c0: 306d 47bc bacb 80bd 3d7a 0e3d b630 393d
000001d0: 2a20 4fbd e5fb 023d 5e8b 9b3b 612a 15bd
000001e0: 0da8 62bd 1d77 8a3b a605 873d d499 84bd
000001f0: e41e 113d 137d dd3c e682 3abd 78c8 12bd
00000200: dc15 5c3c cd80 853d f8ff 75bc b5c8 24bd
00000210: 4166 17be 4713 d4bd 1a16 ebbc b8ea d43d
00000220: e9a6 81bd 4db2 63bd 56ab 983d 11ff ff3c
00000230: b144 2cbd fd53 373d 6f39 a03b d419 2fbc
00000240: 3420 ba3c 319f 84be ca23 acbc 2556 fc3c
00000250: b629 06be 00a1 e83d f15e 59bd bb19 7b3d
00000260: 19a0 2e3d e36b c7bb bebb f03d beeb 8f3c
00000270: a8ea c63d a5bd 82bc 3d81 bb3d 99ca 96bc
00000280: cb5e 453c 3171 b3bd b694 f7bc 0d43 16bd
00000290: f3d1 04bc b040 8ebc 56e3 25bd 1eee 3bbb
000002a0: 3fc0 bebc 532d b2bb d3fe 16bd fc47 0e3d
000002b0: 8aa9 f13c eb3e cbbd ea5f f73d 20af 5f3d
000002c0: 27fb c0bb 0561 4dbd 1df0 8d3d c3e5 713b
000002d0: d27a 17bc c0d2 d1bc 0f42 edbc f1df 82bd
000002e0: 6682 b5bd 39fa 4e3d 033a a33c 241c 7f3c
000002f0: 2603 183d 2c7b 58bc f477 8d3d 3045 7a3d
00000300: 932e efbc 73f3 2fbd b40c c13b 8984 833d
00000310: 5dcd 093c 78e9 37bd dc26 c33c a603 d0bd
00000320: 9f47 17bd 6656 62bc cd45 3c3c 55de 253d
00000330: d92f e73c e3d9 4cbd 0c41 b1bc 5f4a 53bb
00000340: ca92 e73c 04c2 46bd 0c86 a6bc 3f14 0a3e
00000350: 9732 263d d745 f5bc 60d3 20bd e3d6 6abd
00000360: 7394 67bd 5d5e be3d ff04 8e3d b4e9 24bd
00000370: 17bb 19bd 9229 06bd e0d4 f639 2611 a8bc
00000380: 25a2 763c 4685 d53b b99f 0e3d 9e03 81bc
00000390: ff4b 5b3b 8c7e 413d 4840 38bc 3cfa 32ba
000003a0: c551 8cbc 29ad da3c 0271 42bd d244 ad3d
000003b0: bf89 85bc a7b3 cdbc ce7f 7bbc e2ad 21bd
000003c0: 7c12 70bc 3edf 0bbd 23b3 9cbd bcf7 b6bc
000003d0: b43b 4ebd 8a94 703d 50c4 873e e2ad 943d
000003e0: 2d0d fc3c 7cee ce3c a82f 9b3c 3f44 8c3d
000003f0: 4034 74bc 61cf 53bd b2ba 13bd f7d8 3ebd
-0.0506832 -0.051626112 0.036047865 -0.014564869 -0.010116958 -0.0010689743 -0.0004815954 0.041281976
-0.0888831 0.0011767675 -0.010660451 0.09654441 -0.024058787 0.0067149433 0.13970034 -0.012247829
0.034237076 0.011822671 0.09934512 -0.069136105 -0.02986864 -0.022053106 0.03158195 0.027825434
0.0128587345 -0.014611039 -0.014328904 0.012617558 -0.18642387 -0.08670244 0.09110298 -0.0022124366
0.037067536 0.013802454 -0.0023121417 -0.04895457 -0.05359011 -0.07826824 -0.011190638 -0.10548354
0.071711086 -0.0027039293 0.013464097 0.023652965 0.07865683 -0.10045212 0.09923848 -0.012854856
0.020657975 0.015495028 -0.06079652 0.069666594 0.08947449 0.008760471 0.01905403 0.01147854
0.08371384 -0.018116668 0.044225007 0.049289085 0.01858498 -0.10226419 -0.042979483 0.092807665
-0.006139666 0.14120516 0.0061598076 -0.06490766 -0.011424399 -0.028726542 -0.06659969 -0.07371282
-0.007597731 -0.069976315 -1.6141916e-05 0.28562987 0.022549648 -0.060850352 0.07840453 0.013388896
0.0017845135 -0.0097183725 0.05336062 0.056775134 0.008262269 0.09514175 0.0043838667 -0.0562381
-0.047685325 0.09254005 -0.05325544 -0.008532343 -0.05088429 0.0509014 0.08808227 0.10854519
0.02039938 -0.04635338 0.005729828 -0.040355284 -0.05377393 0.004836974 -0.0044558556 -0.009127986
-0.10455037 0.0053746933 -0.0029839058 0.034212593 0.042746846 -0.008640156 -0.031866748 0.0100158295
-0.012172028 -0.06288858 0.034784544 0.04521247 -0.050567783 0.031978507 0.0047468385 -0.03641737
-0.055336047 0.004225625 0.06592874 -0.06474653 0.03542985 0.02703718 -0.04553499 -0.035835713
0.013432946 0.065187074 -0.015014641 -0.04023047 -0.147851 -0.10355239 -0.028697062 0.103963315
-0.06330664 -0.055589963 0.07454555 0.031249555 -0.042057697 0.04475783 0.004889659 -0.01068731
0.022720434 -0.25902703 -0.02101316 0.030802796 -0.13101849 0.11358833 -0.05306906 0.061303835
0.04263315 -0.006085859 0.11754559 0.017568465 0.09712726 -0.01595957 0.091555096 -0.018407153
0.012046526 -0.08761824 -0.030222278 -0.03668504 -0.008106696 -0.01736483 -0.040500008 -0.0028675864
-0.02328503 -0.005437532 -0.036864113 0.03473662 0.029499788 -0.0992411 0.12078841 0.05461037
-0.0058893147 -0.050141353 0.069305636 0.003691063 -0.009245591 -0.025613189 -0.028962163 -0.0639037
-0.08862762 0.0505316 0.019925123 0.015570674 0.037112378 -0.01321296 0.06907645 0.06110114
-0.029197013 -0.04295678 0.005891407 0.064217634 0.008410779 -0.044900388 0.02382224 -0.10156946
-0.036933538 -0.013814544 0.011491251 0.040495235 0.028221058 -0.05001248 -0.021637462 -0.0032240374
0.028268237 -0.04852487 -0.02032759 0.13484286 0.04057559 -0.029940529 -0.039264083 -0.05733384
-0.056538057 0.09295342 0.06934547 -0.04026194 -0.03753194 -0.03275449 0.0004707938 -0.02051599
0.015053307 0.0065161316 0.034820292 -0.015748795 0.0033462045 0.047239825 -0.011245795 -0.0006827449
-0.017128835 0.026693897 -0.047471054 0.08460392 -0.016301034 -0.025110079 -0.015350295 -0.03947247
-0.0146528445 -0.034148447 -0.07651355 -0.022334926 -0.050349906 0.058735408 0.26516962 0.07259728
0.030768001 0.025260203 0.018943623 0.068489544 -0.0149050355 -0.051711444 -0.03606672 -0.046593633

linear2.bias f4 [5]
00000000: 6d28 8ebd 64a5 6ac0 13ff 9e3f c15b 08c1
00000010: ad1f 8f40
-0.06941304 -3.6663446 1.2421592 -8.522401 4.4726167
